Scripts/SAC_cnn/model/leader_agent_actor_SAC_velodyne.pth (torch, 62392 bytes, 6 tensors)

fc1.weight f4 [512, 24]
000000 19 e0 8c b9 47 cb e4 3d 34 e8 29 be 15 5f 18 be
       -0.00026869847 0.111715846 -0.16592485 -0.14880021
000010 d8 12 9f bd 78 b0 64 3d 63 df 2e bb db 78 27 3e
       -0.07767266 0.055832356 -0.0026683442 0.16354696
000020 81 d3 84 bc d5 90 63 3d 64 9d 75 bd 9e 53 24 bd
       -0.016214134 0.055558044 -0.059964553 -0.040118806
000030 3b 4c 48 be f9 84 0b be 63 01 af bd dc 74 9d 3b
       -0.1956033 -0.13624944 -0.08545186 0.0048051905
000040 41 60 a1 3d ab be f8 3d 0e e4 0d be 0a e1 b1 bd
       0.07879687 0.12145742 -0.13856527 -0.08685501
000050 0c 34 97 3d 87 7a 2e 3e 51 85 28 bd de 41 21 3e
       0.07382974 0.17038928 -0.041142765 0.15747783
000060 d5 df d6 bc 15 a0 e7 3c c9 be 43 3e 51 68 3b be
       -0.026229778 0.028274575 0.19115748 -0.18301512
000070 42 0e fa bd 54 44 39 bd 16 b1 95 bd 9f 3e 3b 3e
       -0.12209751 -0.04523118 -0.07309167 0.18285607
000080 3a d6 00 be 88 21 b3 bd 56 5d 0b be c8 18 3d be
       -0.12581721 -0.0874663 -0.13609824 -0.18466485
000090 19 ae e6 bd 14 82 3a 3e 97 36 c8 3d d8 4b d8 3d
       -0.11263675 0.18213683 0.09776037 0.10561341
0000a0 1a b3 8e 3c ff a6 c8 bd 7a c8 28 3d cc 53 3c be
       0.017419387 -0.09797477 0.041206814 -0.18391341
0000b0 f7 2a 10 be f1 e2 c9 bd c0 bb 0a 3e 9c 90 01 3e
       -0.1407889 -0.09857739 0.13548183 0.1265282
0000c0 45 ad bf bd 7b 80 2b bc b1 e3 02 3e 7d 4a 4e 3e
       -0.093592204 -0.010467644 0.1278217 0.20145603
0000d0 b0 91 a6 3d 3b 9f ea 3c 48 05 0d 3e c5 19 f6 bd
       0.081332564 0.02864038 0.13771546 -0.12016634
0000e0 35 f8 19 3d c9 70 22 be 9a 8d 11 be ad 15 d8 bd
       0.037590224 -0.15863337 -0.14214173 -0.10551009
0000f0 a6 c5 bd 3d 6e 45 a7 3d 95 25 f9 bd 8b 09 79 3d
       0.09266214 0.081675395 -0.12165371 0.060800117
000100 71 e7 df 3d b0 38 ea bc ad 9e 9a 3b d8 d5 33 3d
       0.10932816 -0.028591484 0.0047186227 0.04390511
000110 55 b7 02 3e b7 6d 49 3e 4d 2e 23 be fa 57 a6 bd
       0.12765248 0.19670759 -0.15935631 -0.08122249
000120 f3 fb 91 3d e2 23 24 3e 9c cc 2c 3e 77 29 2f 3e
       0.071281336 0.16029313 0.16874927 0.17105661
000130 e4 40 00 3d 36 35 3f be 53 1c 20 3c c8 b0 0b be
       0.031311885 -0.18672642 0.009772378 -0.13641655
000140 06 c9 4b be f9 68 30 3e d3 a0 15 3e e0 50 5a be
       -0.19900903 0.17227544 0.14612131 -0.21319914
000150 75 06 ec 3c ce 78 32 bd 80 2a 30 bd 6d 21 d2 bd
       0.028811673 -0.04357224 -0.04300928 -0.10260282
000160 9c 4c 8e 3d 1a f3 04 be ea 83 87 3d a6 6f c2 3d
       0.06948206 -0.12983361 0.066169575 0.094939515
000170 b6 d5 0b 3e b0 26 8f 3d 97 fc 57 be a9 1c 0d be
       0.13655743 0.06989801 -0.21092449 -0.13780464
000180 c8 9c ce 3d 62 e9 2a 3d 2a da 23 be 3d 5f f1 bd
       0.100884974 0.041726477 -0.16001192 -0.117857434
000190 f3 ca 44 3e 36 82 0d 3e 78 63 b5 bd 07 e3 51 bd
       0.19218044 0.13819203 -0.08856863 -0.0512419
0001a0 2d 04 48 be 3d e4 97 bb 5d 58 1e be 5d fd 21 be
       -0.19532843 -0.0046353624 -0.15463395 -0.15819307
0001b0 75 bd 43 bc 83 21 ee 3c 92 23 ae bd 68 d2 f6 3d
       -0.011947026 0.029068714 -0.08502878 0.120518506
0001c0 4b 61 00 be b2 31 3c 3e 71 a3 0d 3e 11 29 32 be
       -0.12537114 0.18378332 0.13831879 -0.17398478
0001d0 30 68 4e bd 1e 3f 1b 3c 5f 7d e8 3c 38 fa 3d 3d
       -0.05039233 0.0094754975 0.028380094 0.046381205
0001e0 52 a5 a7 3d 39 fc 63 3c 2e 8f c8 bd 9f c9 c8 3d
       0.08185829 0.013915115 -0.09792934 0.09804081
0001f0 9e 14 47 be a7 bf f4 bd aa ee 4a bd a3 ca c8 bd
       -0.19441459 -0.11950617 -0.049544014 -0.09804275
000200 d3 cc 8f bd 40 20 2a be 6a 8c 2d bd 8b 40 36 3d
       -0.07021489 -0.16613865 -0.042370237 0.044495147
000210 14 d3 06 be 84 26 20 bc 56 24 16 3e b0 3e a7 bc
       -0.13166457 -0.009774808 0.14662299 -0.020415634
000220 c6 49 ca 3b 9d 78 89 bc 7a 39 2e 3d bc 21 06 3e
       0.0061733453 -0.016781146 0.042535283 0.13098806
000230 70 1d 48 3e d2 0c 05 3e 8f ee 47 3e fe eb 78 bc
       0.1954248 0.12993172 0.19524597 -0.015192984
000240 1d c5 3b be ac 2f c6 bd 2f 53 0e 3e 45 70 ad ba
       -0.18336911 -0.096770614 0.1389892 -0.0013232311
000250 d3 c9 cf bd 48 2d 20 be 5f 9d 43 be d0 6a 30 be
       -0.10145917 -0.15642273 -0.19103001 -0.17228246
000260 1d 97 29 bd 53 42 e5 3d 53 03 e2 3d ad 96 49 be
       -0.04140388 0.11194291 0.1103579 -0.19686384
000270 87 62 02 3e 05 90 23 be 31 c2 30 bd 9e 81 a9 bd
       0.12732898 -0.15972908 -0.043153945 -0.08276676
000280 50 0b 21 bd 22 29 24 bd 20 91 3b be 7e 7a 34 be
       -0.03931743 -0.04007829 -0.1831708 -0.17624852
000290 d2 d4 02 bd 00 00 2d 3b 6e e8 bd bd 4a 7a 9d 3d
       -0.031941243 0.0026397705 -0.09272848 0.076893404
0002a0 9d 1e 37 be 33 2d 13 bc 34 82 3c 3e 08 47 a1 bd
       -0.17882772 -0.008982944 0.18409044 -0.07874876
0002b0 cb ec 40 3e 6e 3a 9f 3d fe cb 38 be a7 13 08 3e
       0.1884033 0.077748165 -0.18046567 0.13288747
0002c0 b6 dc 9e bc f5 03 b2 bd 26 c1 2b 3e ea 02 24 be
       -0.019392353 -0.08692161 0.16772899 -0.16016737
0002d0 f7 d3 d9 3c 0f 07 1b bd 3b 59 1a 3e ce a2 7d 3d
       0.02659033 -0.03784853 0.15073101 0.06192284
0002e0 7e 56 d3 3d bd 11 9e 3d 51 a2 33 bd ed 17 1a bd
       0.103192315 0.07718227 -0.04385597 -0.037620474
0002f0 1a bf 27 be fd 7e e6 3d 5b 05 2b 3e 26 74 14 3e
       -0.16381493 0.1125469 0.16701262 0.14497432
000300 80 cf 0e be fa b6 5f 3c d9 69 0e be 51 3c dd bd
       -0.13946342 0.013654465 -0.13907565 -0.1080252
000310 02 3b eb bd dd c1 96 3d a9 b2 f1 bd e7 d1 8f ba
       -0.11485864 0.07361195 -0.11801655 -0.001097259
000320 1a 8e 2e 3c d2 8d 08 3e 96 29 1c be a9 b9 0d be
       0.010653997 0.1333535 -0.15250239 -0.13840355
000330 0f 58 ef bd d9 f1 16 3e eb 19 8d bd 7b b2 34 3e
       -0.11686718 0.14740695 -0.06889709 0.1764621
000340 85 02 a0 3d 77 26 f5 3c fe a8 16 3b ce aa 14 bd
       0.078129806 0.029925568 0.002298891 -0.036295705
000350 9c 31 c8 3c c7 32 32 bd 49 6f 06 3b 55 0b 02 3d
       0.024437718 -0.043505456 0.0020513108 0.03174909
000360 23 fb 1e be 56 3e d2 bd 67 65 2d 3e a6 ae 24 be
       -0.15525489 -0.10265796 0.16933213 -0.16082248
000370 88 3c 1b bc 55 84 54 3e 82 4e a3 3d 34 21 44 3c
       -0.009474881 0.20753606 0.079739586 0.011970807
000380 f3 fb 2e be 7c 42 db 3d dd 00 0f be 41 ea 56 bd
       -0.17088298 0.1070604 -0.13965173 -0.052469496
000390 49 ec 80 bd 58 df ce bc 2e bc dc 3b 93 f9 30 3e
       -0.06295068 -0.025252983 0.0067363 0.17282705
0003a0 54 48 f1 3c 8f 6e 3f 3e e2 de 04 3e 09 25 fe bd
       0.029453434 0.18694519 0.12975648 -0.12409408
0003b0 10 01 c7 3d f1 cc 12 be 3f e9 a6 bd 70 7c 78 3d
       0.097169995 -0.14335991 -0.08149957 0.060665548
0003c0 76 99 94 3d 9b 16 22 3e 5e b3 77 bd 60 af bb 3b
       0.07255833 0.15828936 -0.060473792 0.0057276934
0003d0 c6 5d e2 3d 82 8a 44 be 5c c8 1c 3e a9 2a 27 be
       0.11053042 -0.19193462 0.15310806 -0.16324867
0003e0 f4 5a 07 3c a8 52 ef bc ea 70 d1 bd 21 fd 03 3d
       0.008261431 -0.029214218 -0.10226615 0.032223824
0003f0 5c 39 32 3e b0 a7 5e bd 58 41 ed bd b5 b8 8f bd
       0.17404693 -0.054359138 -0.11584729 -0.07017652

fc1.bias f4 [512]
000000 f7 4f b0 3c a2 bf 03 3d ef 6e ad bb c9 40 2a be
       0.021522505 0.032165177 -0.0052927653 -0.16626276
000010 59 2a 83 bd 0d fa 43 3d 29 1d c1 bd 6c 2c 4c 3e
       -0.064045615 0.04784589 -0.0942939 0.1993882
000020 be 7e 03 bd 35 cf 2e bd b3 10 da bd 08 5b d1 3d
       -0.032103293 -0.042678077 -0.106477164 0.10222441
000030 79 a5 50 3e 94 6c 37 3e 91 ac 43 be 1c 5a 7a bc
       0.20375623 0.17912513 -0.19108798 -0.015280273
000040 f8 5e 3a bd df ff 4e bd 57 1a 33 be 6d b6 4a 3e
       -0.045500726 -0.050536986 -0.17490517 0.19796152
000050 4d ee 20 3e 2f e3 17 be 2b 18 04 3e 3b 37 84 bd
       0.15715905 -0.14832757 0.12899844 -0.06455847
000060 0f c5 47 3e 1a 0e 75 3b 6b 3a d0 3d 6a a0 50 bc
       0.19508766 0.0037392438 0.10167392 -0.012733558
000070 7e 21 82 bd 8f 97 3f be 6f a2 1c be a1 11 3d 3e
       -0.063540444 -0.18710159 -0.15296338 0.18463756
000080 2d 1e 45 3e 8c 6b 43 3e 87 a1 1c 3e b5 3f 34 be
       0.19249792 0.19083995 0.15295993 -0.17602427
000090 89 8e fc bd 51 b0 42 3d 30 28 38 be 5e 05 e3 bb
       -0.12331874 0.04753143 -0.1798408 -0.00692813
0000a0 ea 12 84 3d 02 3b 75 bd f5 f2 3a 3d 3c 6d bd 3c
       0.0644892 -0.059870727 0.045641858 0.023123376
0000b0 b6 a9 a7 bd a0 06 ff 3c 6e 39 30 3d 50 46 35 be
       -0.08186667 0.031131089 0.04302352 -0.17702603
0000c0 75 08 44 3e ea 1e 48 3e 5d d1 2e be e6 a5 5e bd
       0.19143851 0.19543043 -0.17072053 -0.05435743
0000d0 43 bd 3c bc 7e 34 8d 3b 59 14 9d bd 49 e4 1e 3c
       -0.011519733 0.004309236 -0.07669897 0.009697982
0000e0 1f 6b 76 3d 41 c0 78 3d 46 60 e9 3d bc 9c 1e 3d
       0.060160752 0.060730223 0.11395316 0.038723692
0000f0 6b 01 95 3d 9c 7d f6 bc 4d 7e 4b bd 69 6e af 3d
       0.07275661 -0.030089192 -0.049680997 0.08565981
000100 a3 91 2a 3e 5f c5 d8 39 c5 3b 25 be 3d d5 65 3d
       0.16657118 0.00041345783 -0.16136082 0.056111563
000110 b5 25 27 be a9 68 88 3d 60 2e 4f 3e 13 9b 04 be
       -0.16322978 0.06660587 0.20232534 -0.12949781
000120 3d b2 a1 bc d0 16 49 3e c3 a9 b2 3d 1b c6 46 3e
       -0.019738311 0.19637609 0.08723786 0.19411509
000130 1d 42 c6 bd 8e 07 e0 bc 01 6b 0e be 1b 9d d2 bd
       -0.09680579 -0.027347352 -0.13908006 -0.10283872
000140 f9 1b 3c 3d c2 17 23 3e 28 93 37 3e 5b 41 a9 bd
       0.045925114 0.15927032 0.1792723 -0.08264419
000150 a8 dc 37 3e 32 1c 0d be 57 e3 48 be 94 ba f6 3c
       0.17955267 -0.13780287 -0.19617973 0.030118264
000160 38 3c 47 3e ea b4 23 3e e0 8f 0d be 3a 5c 0c bd
       0.19456565 0.15986982 -0.13824415 -0.03426764
000170 62 bc 41 3e 86 f7 d1 3d ad 0e 9f 39 8e 69 b4 bd
       0.18919519 0.102522895 0.00030337778 -0.088091955
000180 f2 af f6 3d fc c7 2e 3e 18 ae 09 3e 81 f1 9b 3d
       0.12045278 0.17068475 0.13445318 0.076144226
000190 c3 a6 c0 bd cc b8 41 be 8c 42 36 3e 19 da 56 3d
       -0.09406807 -0.1891815 0.17798823 0.052454088
0001a0 ef b7 f4 3c 8f f4 9b 3d 15 e7 a3 bd 76 b0 1d be
       0.029872863 0.07615005 -0.0800306 -0.15399346
0001b0 30 4b f0 3d c5 c1 83 bc f6 2e 41 be b4 5d 09 bd
       0.11733091 -0.016083607 -0.1886557 -0.033536628
0001c0 1f ce 19 bd 88 85 12 be 48 0f 2a be 7c db 5e bd
       -0.037550088 -0.1430875 -0.16607392 -0.054408535
0001d0 63 a3 2f be 3b 2e e1 3d 18 5e 4c be 15 3a b2 bd
       -0.17152171 0.10995146 -0.19957769 -0.087024845
0001e0 b0 4d 1b be 90 57 81 bd 08 ee 4b be 9a ea 7f bd
       -0.15166354 -0.06315529 -0.1991502 -0.062479593
0001f0 e4 9d 06 be 12 3d 05 3e a6 c8 2f be 6c 14 45 3e
       -0.13146168 0.13011578 -0.17166385 0.19246072
000200 60 d5 3f 3e c9 97 77 3d dd 18 c6 bc ed ad f7 bd
       0.1873374 0.060447488 -0.024181778 -0.120937206
000210 55 71 b1 bd 6f c5 09 be fa ef cb 3c 22 f9 3f 3e
       -0.086641945 -0.13454221 0.024894703 0.1874738
000220 a2 2e 79 bd 8c 18 a3 bd 5c 8e 2e 3d 41 34 4b be
       -0.06083549 -0.07963666 0.042616233 -0.19844152
000230 f8 0b 88 bd 23 40 08 be 5e f5 1b be 27 e3 86 bd
       -0.06642908 -0.13305716 -0.15230319 -0.065862946
000240 f8 4e 22 3e 0d 96 c1 3d ad 6e 79 3d 94 95 2b 3e
       0.15850437 0.09452448 0.060896564 0.16756278
000250 b0 19 f4 3d 11 c8 c9 3a 4d 55 73 3d 6a f8 a7 bc
       0.11918962 0.0015394707 0.05940752 -0.020504195
000260 f5 9b ca 3d a2 41 51 3d 16 8f 9f 3d 53 7f 4c be
       0.09893028 0.051087983 0.07790963 -0.19970445
000270 b1 97 0e bd f7 c4 e4 3d 57 14 9f 3d b6 91 3d 3d
       -0.034812633 0.111703806 0.077675514 0.04628154
000280 91 50 a7 bd d8 52 03 3e c3 4b 49 bd f7 83 e5 bd
       -0.08169664 0.12824571 -0.049144518 -0.11206811
000290 aa 46 1d be 8a bd 86 b9 0d 74 26 be 34 0a 0a 3e
       -0.15358987 -0.0002569969 -0.16255207 0.13480455
0002a0 9c 66 10 3d e7 0f 36 bd da 9d 2e 3e 1d c6 d0 3b
       0.035254106 -0.04444876 0.17052403 0.006371273
0002b0 2b d1 09 3d a3 77 12 3e 3a 6d 11 3d 10 ab 93 bb
       0.033646744 0.1430345 0.035504557 -0.004506476
0002c0 f2 ff 45 3e 98 f6 17 be 60 7b cb 3d d1 eb 70 3d
       0.19335917 -0.14840162 0.09935641 0.058818642
0002d0 d6 f2 25 bd ea 8a 96 3d c1 6d c7 3c f8 5d 03 be
       -0.04051479 0.073507145 0.024344327 -0.12828815
0002e0 94 20 15 be 6f 7c c1 bd 14 b7 3d 3e 0e 05 1a 3e
       -0.14563209 -0.09447562 0.1852687 0.1504099
0002f0 11 9e e8 bc 0d 02 d3 3d a1 33 eb 3d af f1 36 3e
       -0.028395684 0.103031255 0.11484457 0.17865632
000300 7c a7 79 3d b5 5b 2a 3e a8 85 79 bd 6c 40 19 3d
       0.06095074 0.16636546 -0.06091848 0.037414953
000310 46 99 05 be 0e c5 2e be d6 ef 56 bd 2b ce 26 be
       -0.1304675 -0.17067358 -0.05247482 -0.16289584
000320 da 0e 87 3d db bb 04 3e 32 08 fe 3c 91 ab 40 be
       0.065946296 0.12962286 0.031009767 -0.18815447
000330 a6 8e b1 3d 16 72 3a 3e ee 8e dd 3c 9e 68 43 be
       0.08669786 0.18207583 0.027045693 -0.19082877
000340 aa ef 4a bd e7 e4 4a 3e 49 98 e5 bd 3a d3 1a be
       -0.049544968 0.19813882 -0.11210687 -0.15119639
000350 6d 7a 13 3e 90 26 28 3e 26 72 24 3c a9 d6 42 3e
       0.1440217 0.1642096 0.010036981 0.19027199
000360 8b 55 36 be d4 19 fc 3d 9d 00 41 be 10 ce 85 bd
       -0.1780607 0.12309614 -0.1884789 -0.06533444
000370 94 05 2b 3e 51 44 d5 bd 0b c9 17 be 5f 0d 04 3d
       0.16701347 -0.10413421 -0.14822786 0.032239314
000380 c6 3f 46 3e ca f4 8f bd 8e c1 41 be e2 29 ed 3d
       0.19360265 -0.07029112 -0.18921492 0.11580254
000390 8b 3f 27 3e 63 06 fc bd 84 3f e2 bd 9c 8d bb 3d
       0.16332833 -0.12305906 -0.11047271 0.09157869
0003a0 b7 5a 51 3d 99 d3 24 be 51 67 3a bd 17 f1 3d 3d
       0.051111903 -0.16096343 -0.045508686 0.0463725
0003b0 b7 40 73 3c 6f a0 1d 3e 55 81 f2 3d c4 f3 df 3c
       0.014846972 0.15393232 0.118410744 0.027337916
0003c0 30 5f 17 3e a4 5f 47 be ab 3f e4 3c 10 9d e5 bb
       0.14782405 -0.19470078 0.02786239 -0.0070072487
0003d0 80 3d fa bd 9a 55 13 bd 33 13 62 bd 67 5b 4c be
       -0.122187614 -0.035970308 -0.05519409 -0.19956742
0003e0 10 17 c6 3c 19 38 57 3e 03 ba 0b be c6 ff 08 bd
       0.024180919 0.21017493 -0.13645177 -0.03344705
0003f0 0a d0 5f bd 53 9a d4 bd f0 f7 be 3d 52 fe 42 be
       -0.05464176 -0.103809975 0.09324634 -0.19042328

fc_mu.weight f4 [2, 512]
000000 87 43 30 3b a4 3a 2b bd 07 2f 39 3d 14 ea 06 bd
       0.0026895718 -0.04180397 0.045210864 -0.032938078
000010 20 9a 18 3d 94 f8 f5 3b 49 11 0a bd b7 ed 00 bd
       0.03725636 0.0075064395 -0.03370789 -0.031476703
000020 d0 2a a5 bc 9c 93 42 3d a5 0f 3c 3d 78 ba db 3c
       -0.020162016 0.047504053 0.045913357 0.026822314
000030 11 94 41 3d 47 09 01 3d f4 8a 7f 3c aa 73 32 3d
       0.047260348 0.03150299 0.015597094 0.043567337
000040 11 61 e8 3c aa 2e 2a 3c a3 67 9d 3c b9 9d 34 ba
       0.028366597 0.010387102 0.019214457 -0.00068899576
000050 4f 02 80 bc 53 a9 af 3c 74 d3 93 3c 2c 0b d8 3c
       -0.0156261 0.021443045 0.018045165 0.026372515
000060 c0 bf f7 3c 18 b5 2f 3d 0e e9 76 3c fb ed 73 bc
       0.0302428 0.042897314 0.015070213 -0.014888282
000070 85 81 99 3c b2 12 ac 3c e6 3e df bc 37 d1 c8 bc
       0.018738518 0.021005008 -0.027251672 -0.024513824
000080 48 8f d9 bc 60 72 bc bc 86 0d 3a 3d 84 d2 e6 3c
       -0.02655758 -0.023003757 0.045423053 0.028176554
000090 6e 99 96 3a a9 0f e9 bc d9 32 41 3c 10 0a 95 3b
       0.0011489817 -0.02844985 0.011791908 0.0045483187
0000a0 f3 85 41 3b 37 7c 9a bc 05 9f 4a 3d 91 77 38 3c
       0.0029529303 -0.018858058 0.04946806 0.011258976
0000b0 77 5d 02 bd c1 6e 01 3d f0 bf fc bb 3a f2 b6 bc
       -0.031827416 0.031599764 -0.0077133104 -0.0223323
0000c0 df 45 ed bc 47 dd 98 ba 49 e8 ab bc a9 99 c4 bc
       -0.028963981 -0.0011662625 -0.020984786 -0.023999052
0000d0 47 28 bf 3c 43 94 56 3b 15 a8 c8 bc e6 20 f2 ba
       0.023334635 0.003274218 -0.02449421 -0.0018472939
0000e0 7f 1b 20 bd 32 a8 0d 3d 21 5b 17 bd 42 47 d1 bc
       -0.039088722 0.03458423 -0.03695214 -0.025546674
0000f0 5c 3a 36 bc a4 80 19 bd 73 0c 14 bd d7 67 e9 bc
       -0.011122312 -0.037476197 -0.036144685 -0.028491898
000100 82 02 c6 bc bf dc 35 3c b2 b6 ea 3c 17 0c e4 bc
       -0.024171118 0.011099993 0.028651569 -0.027837796
000110 c4 18 d1 3c 45 88 7c bc cb 4b 13 3d c1 65 90 bb
       0.025524504 -0.015413349 0.035960954 -0.0044066613
000120 7e 0f ce 3c cb 91 7f 3c 8d e5 32 bc 93 d9 d4 3b
       0.025153872 0.015598725 -0.010918987 0.0064956634
000130 34 23 cb 3c 4e 52 04 3d de 4f 6b 3c 68 94 c5 3c
       0.02479706 0.032305054 0.014362304 0.024118617
000140 38 49 8a 3c cf 3a 19 3d b9 d9 ca bc 86 8d 86 bc
       0.016880617 0.0374096 -0.024762021 -0.016424906
000150 9f 2f 73 3b 0a f9 fd 3c ee 72 29 bd 78 d0 ca 3c
       0.0037107242 0.03100254 -0.04136937 0.024757609
000160 e5 e9 23 3d 82 c0 fb 3c a2 be 32 3d 0a 04 8a bc
       0.04001798 0.030731443 0.043638833 -0.01684763
000170 70 05 33 3c df 02 2f 3d ea 4c c6 bc d2 8b 20 bc
       0.010926589 0.042727347 -0.024206597 -0.009798961
000180 10 2e 8a bc ec 30 16 3d 46 b5 7b 3c a6 73 0a bd
       -0.016867667 0.03666775 0.015363043 -0.033801697
000190 93 93 01 3d 9d 0c 2c 3d 37 4d 37 bb 36 ee 3f 3d
       0.03163488 0.042004216 -0.0027969608 0.046858035
0001a0 6c f6 14 bd 88 bc de 3b 96 31 95 3b aa 21 5e 3c
       -0.03636782 0.006797377 0.0045530302 0.013557831
0001b0 4d 8a d9 3c 97 5a a1 3c 82 21 3a 3d 6d 8f b8 bc
       0.026555205 0.019696517 0.04544211 -0.022529328
0001c0 ff 65 47 3c 67 da cf 3c 3b 51 fb bc 81 cf 6d bc
       0.012170314 0.025372697 -0.030678382 -0.014514805
0001d0 bb 97 09 bd ea f9 84 bc 34 33 b2 bc 60 e1 1c 3d
       -0.033591967 -0.01623245 -0.021752931 0.03830087
0001e0 1a 90 90 bc 58 38 10 3c 1f 0c 8c bc d7 9f e9 3c
       -0.017646838 0.008802496 -0.017095624 0.0285186
0001f0 7b 2b 82 3b f4 14 d7 bc f8 3c 33 bc 0b ab ba bc
       0.0039724684 -0.026255108 -0.010939829 -0.022786638
000200 61 d6 8f 3c 4e dd 3f 3d fc 2d 7d 3c d0 2b 3a 3c
       0.017558279 0.046841912 0.015452858 0.011362985
000210 88 2c f8 bc 7a 7e 81 3b 0e d0 bc 3c 24 97 d4 3b
       -0.030294672 0.0039518448 0.023048427 0.006487744
000220 2e a4 41 bd d0 40 c1 bc b7 01 26 bd 7d 16 5b 3b
       -0.047275715 -0.023590475 -0.04052898 0.0033430152
000230 45 7e a4 3c b2 24 f3 3c 9a 18 f5 3c f0 81 f2 bc
       0.020079741 0.029680584 0.029918958 -0.029602975
000240 32 f6 5d 3c a2 5c 4f 3d 20 5b b2 bc 83 53 22 bd
       0.013547467 0.05062545 -0.021771967 -0.039630424
000250 11 15 4d bc 42 ce b2 bc c6 ec 1b 3d 0f 45 24 3d
       -0.01251723 -0.021826867 0.0380676 0.040104922
000260 d5 39 2d 3d 22 31 12 3d a8 62 a0 3b c1 38 ae bc
       0.04229148 0.035691388 0.0048945732 -0.021267297
000270 36 0f 3f 3c 61 15 c7 ba a3 b2 89 bc d2 6e 02 bd
       0.011661341 -0.0015188867 -0.016808813 -0.031843968
000280 16 50 2d 3d a6 11 18 bd 43 b4 3f bc 5d 4b 6a 3c
       0.042312704 -0.037126206 -0.011700693 0.014300195
000290 4d ea bb bc 69 a6 3f bc 42 a1 04 bd b4 21 64 3c
       -0.022938872 -0.01169739 -0.03238035 0.013924051
0002a0 2c 96 44 3d da 3d a7 3c 5a c0 86 ba 11 f9 01 3d
       0.047994778 0.020415235 -0.0010280714 0.03173167
0002b0 20 cf 28 3d 9d e2 33 3d 05 e3 98 bc 5e ed 88 3c
       0.041213155 0.043917287 -0.018662939 0.016714748
0002c0 ae 9e 5f 3c b9 b0 7a 3c d5 3f 08 3d 79 68 72 bc
       0.013648672 0.015300923 0.033264 -0.014795416
0002d0 a7 64 da bc 79 f1 ba 3c d4 42 8a 3c 77 4b 9d bc
       -0.026659323 0.022820221 0.01687757 -0.019201024
0002e0 1c 79 c9 3c be 6e c9 ba 2e a1 35 3d 20 20 02 bd
       0.024593882 -0.0015368087 0.044343166 -0.031768918
0002f0 92 50 62 bc 33 fe a5 3c ad 30 b0 bc bd 13 7e 3b
       -0.013813155 0.020262813 -0.021507585 0.003876909
000300 f8 5c 0d bc 9a 91 0b 3d c6 43 11 bd f0 bb cd bc
       -0.0086281225 0.034074403 -0.035465024 -0.02511403
000310 56 07 f6 bc e8 06 db 3b 30 a6 33 3b 93 5e 92 bc
       -0.030032795 0.006684173 0.0027412288 -0.017867362
000320 1a 12 04 bd 31 64 aa 3c 35 6e c8 bc 8c 03 ef bc
       -0.032243825 0.020799728 -0.024466613 -0.029176496
000330 c4 80 d1 bb 31 ec 22 bd bc 22 06 bc fb dd d3 3b
       -0.006393524 -0.03977603 -0.008186992 0.006465671
000340 28 b9 ab 3c 1b 2b 43 3a 93 2a 39 3d a4 f9 5b bb
       0.020962313 0.0007445083 0.045206618 -0.0033565545
000350 21 c2 af 3c 62 74 c0 bc 29 6b 07 bb af ef 17 3d
       0.021454873 -0.023492996 -0.0020663238 0.037093814
000360 5f 2b 09 3d d7 d8 26 bb 67 4d 89 bc 42 7e 1e bc
       0.033488628 -0.0025458836 -0.016760541 -0.009673657
000370 14 77 fe bc 33 80 a8 3c b9 eb 37 3d 80 de 64 bb
       -0.03106264 0.020568943 0.044902537 -0.003492266
000380 19 a5 bc bc e7 83 45 3d 6f 45 6b bc 23 07 0f bc
       -0.023027943 0.048221495 -0.014359816 -0.008729729
000390 43 bc e3 bc 55 8e 23 3d 04 3a e7 3b 65 9c 1e bd
       -0.027799731 0.03993066 0.0070564765 -0.03872337
0003a0 0b a1 34 3d 1d 7f d9 3c 8b 24 8b 3c db 7a 47 3d
       0.044098895 0.02654987 0.016985198 0.04870115
0003b0 c5 44 61 3c 11 a0 8d bc ca 05 a4 bc 89 5e d0 3c
       0.013749306 -0.01728824 -0.020022292 0.025435703
0003c0 46 25 a5 bc c5 27 f4 3c f6 ab c9 bc db 22 24 3d
       -0.020159375 0.02980412 -0.02461813 0.040072303
0003d0 8d c3 5a bb 7f 21 09 3d 4b 81 e7 bc 46 fb 8c 3c
       -0.0033380718 0.03347921 -0.028259894 0.01720966
0003e0 5c 9c 12 3d 25 d1 6d 3c 49 89 1a bb 7d ec bf bc
       0.035793647 0.014515196 -0.0023580363 -0.023428196
0003f0 f3 83 8e bc 8a 67 bc 3c 47 30 23 3d 3c 72 c1 bc
       -0.017396903 0.02299859 0.039840963 -0.023614042

fc_mu.bias f4 [2]
000000 66 3b 22 3c ab f3 01 3d
       0.009901857 0.03172652

fc_std.weight f4 [2, 512]
000000 ce b4 fd 3c 11 2b 2b 3d 99 0d bc bc b3 50 04 bc
       0.030970003 0.04178912 -0.022955703 -0.008075881
000010 a6 14 53 3c 9e 8b 05 bb e0 4f 08 bc c8 ae 16 3d
       0.012883341 -0.0020377408 -0.008319825 0.03678778
000020 c9 2b 99 bc d3 e1 9e bc 0f 04 02 3c f9 d2 91 bc
       -0.018697636 -0.01939479 0.007935538 -0.017800795
000030 b0 bd c9 bc 2c 2c 0e bd 2a 9c 03 3d 36 dc a4 bc
       -0.024626583 -0.034710094 0.03213135 -0.020124536
000040 91 fa 29 bb af 9f fb 3c a8 70 1d bd d4 71 5f 3b
       -0.0025936703 0.030715792 -0.038437515 0.0034094946
000050 4e 9f 9d bc 5a cf f1 bc 39 46 0e 3c 4d ab 90 3c
       -0.019241001 -0.029517818 0.008683735 0.017659808
000060 5c de 13 3d f0 20 4a 3d 1a 47 81 3c f7 e9 99 3b
       0.03610073 0.049347818 0.015780974 0.0046970802
000070 06 06 b3 bc 44 62 00 bc b5 04 31 bd 3a bc 1b bd
       -0.021853458 -0.007835928 -0.04321738 -0.038021304
000080 cb cd 11 bd 15 d0 08 3d 10 eb a7 3c 88 d3 26 3d
       -0.03559665 0.033401567 0.020497829 0.040729076
000090 59 2e fe 3c f5 95 07 3d 12 b0 58 3c c7 e8 e0 3c
       0.03102796 0.033101995 0.013225572 0.027454747
0000a0 09 75 95 3c 40 1f 2f bd 09 62 11 bd c6 c0 14 3d
       0.018244283 -0.04275441 -0.035493884 0.036316656
0000b0 8f 75 f8 3c 06 02 44 bc 5c 9c ce bc 7e f4 09 bd
       0.030329494 -0.011963373 -0.025221042 -0.03368043
0000c0 3c 82 08 bd 0d 98 3d bc 0f a3 d8 3b 03 71 a3 3a
       -0.033327326 -0.011571896 0.006611235 0.0012469593
0000d0 43 79 96 3c 8b b0 bc 3b 69 9f 50 3c 4e a7 1c 3d
       0.018368369 0.0057583502 0.012733319 0.03824549
0000e0 c5 14 39 3c 26 6d b5 3a 44 62 c3 3c 68 c5 7a 3c
       0.011296456 0.0013841733 0.023850568 0.015305854
0000f0 8d d0 bc 3c ba f2 2e bc a6 ca 29 bd e1 16 84 bc
       0.023048664 -0.010677988 -0.041453026 -0.01612419
000100 02 d1 1a 3d 7e 3b 48 bc c2 10 aa bc e6 53 82 bc
       0.03779698 -0.012221215 -0.020759944 -0.015909147
000110 2d 49 de 3c 6c fb 29 3d 72 f1 23 bd 1e 1a 78 bc
       0.027134502 0.04149954 -0.040025182 -0.015142946
000120 06 ee 12 3d a7 19 fe 3b ae f4 f8 3c 01 58 fb bc
       0.035871528 0.007754523 0.03039011 -0.030681612
000130 14 8b df 3c c2 d0 a9 bc f8 47 d5 bc 33 24 71 bc
       0.027287997 -0.020729426 -0.026035294 -0.014718103
000140 04 d1 f4 bc 9f 39 83 3c 19 55 eb 3c 73 f3 d9 bc
       -0.029884823 0.016018687 0.028727101 -0.026605343
000150 ee 6d 92 3c e4 90 f8 bc b5 b3 d6 3c 82 ac 1a bb
       0.017874684 -0.030342527 0.026208738 -0.0023601358
000160 c9 92 e7 3b 3f c6 ff bc db b3 8e 3c 60 50 b7 3c
       0.0070670587 -0.03122246 0.017419746 0.022377193
000170 8f cc 8a bc c9 7c 95 bc cd eb 17 3d ed 1d 16 3d
       -0.016943244 -0.018247979 0.03709011 0.036649633
000180 db 92 a9 bc a4 a4 90 3c de 9c a0 bc 24 b4 2c bd
       -0.020699909 0.017656632 -0.01960605 -0.042163983
000190 9e ff 1f 3a f3 c7 19 bd 7a 44 8b bc 7f 2d bd bb
       0.00061034586 -0.037544202 -0.017000426 -0.005773246
0001a0 59 f3 d5 bc ea 71 bc 3c 5e b5 2b bc 61 39 02 bd
       -0.026117014 0.023003537 -0.010480253 -0.031793002
0001b0 21 fc d5 3b 1a 5b 36 3c 8a 64 28 bc 60 20 fd bc
       0.0065303002 0.011130119 -0.010277877 -0.030899227
0001c0 5a c1 a9 3c ad 14 92 bc b1 cd 69 bc ff 6a 1e 3d
       0.02072208 -0.017832125 -0.014270232 0.03867626
0001d0 8b 49 d2 bc 23 0d f2 3c c3 5d 57 3b 02 ac 29 bc
       -0.025669834 0.02954728 0.0032862283 -0.010355951
0001e0 bd 50 d5 bc 04 5e 4e 3d a0 7c f5 3b 3b 6d 2b 3c
       -0.026039476 0.05038263 0.007491663 0.010463054
0001f0 74 42 09 bd a9 6b 08 3d b7 9c 17 bb 7a 54 a3 3c
       -0.03351064 0.033305798 -0.002313418 0.019937743
000200 c0 44 03 3d bf 7d d7 3b b2 6b ea 3c e0 5e a8 bc
       0.032047987 0.0065762694 0.028615806 -0.020553052
000210 b5 c7 b9 3c 43 f7 b4 3c 27 eb c9 3c cc db 67 bc
       0.022678236 0.02209056 0.024648262 -0.014151525
000220 18 3b fb 3c b7 86 23 3d 84 7b 9d bc f3 54 14 39
       0.030667827 0.039923396 -0.019223936 0.00014146026
000230 45 c5 ae bb 25 10 ba 3c 96 11 34 bb 20 a8 4f 3c
       -0.005333575 0.022712776 -0.0027476302 0.0126743615
000240 96 16 8a bc e4 17 67 3c 9e 73 f7 3c 8d 86 01 3c
       -0.016856473 0.014104817 0.030206498 0.007905615
000250 20 c2 2f 3d b7 b0 31 3d f8 c7 f7 bc 6c fd 03 bd
       0.04290974 0.04338142 -0.03024672 -0.032224104
000260 4d e6 01 bd 85 65 09 bc ca b8 e5 3c 35 c5 81 bc
       -0.031713773 -0.008386021 0.028042216 -0.015841106
000270 84 a9 1c bc f5 33 bf bc 31 f3 78 3c e7 04 d9 3b
       -0.0095619 -0.023340205 0.0151947 0.006622899
000280 6f c1 0e bd 01 87 a7 bc cb a6 38 bb 12 d5 35 3d
       -0.03485244 -0.020450117 -0.0028175588 0.044392653
000290 46 ac 1f bd 48 90 20 bd bc e5 9e 3c 84 fc 80 3c
       -0.038982652 -0.039200097 0.019396655 0.015745409
0002a0 a5 e2 91 bb e5 78 18 bd 5c f0 aa bc 5e 63 0e 3d
       -0.004452067 -0.03722467 -0.020866565 0.034762733
0002b0 c4 78 25 3d 1f 3f e8 3b b7 31 44 3d 35 e8 19 3d
       0.040398374 0.0070876027 0.047898974 0.037574966
0002c0 e5 51 0a ba 24 13 dd bc ce 86 b6 bc 09 c3 1c bc
       -0.00052764855 -0.026986666 -0.022281077 -0.009567984
0002d0 be 11 0d bd 83 8d 31 3d 3b d1 dd ba ec 72 31 bd
       -0.03444075 0.043347847 -0.0016923317 -0.04332249
0002e0 f2 7c 90 bc cb b1 3b bc 08 1d 0d bd 2d 9c fd bb
       -0.017637704 -0.011455963 -0.034451514 -0.007739565
0002f0 bd 78 ec bc 84 8c 39 bc 6d 11 01 bd f0 07 f7 ba
       -0.028866166 -0.011325005 -0.03151076 -0.001884697
000300 34 48 da bc f4 a0 a0 3c fb 19 0d 3c 28 a7 d9 bb
       -0.026645757 0.019607998 0.008612151 -0.006642241
000310 d5 e0 ca 3c 4a 4e ab 3c 40 d1 0b bb 69 3c 83 3b
       0.024765411 0.020911355 -0.002133444 0.004005004
000320 a7 c8 b0 3c 7f 58 0b bd 36 0d 0b 3c 3a 76 ea 3b
       0.021580053 -0.034019943 0.008487036 0.007155207
000330 96 52 8d ba cd 98 22 bc 9d 2d af bc 36 42 78 3c
       -0.0010782059 -0.009924126 -0.021384055 0.015152505
000340 bb af ce bc 37 29 8c 3c 53 99 09 bd c2 2d 50 3c
       -0.02523028 0.017109497 -0.033593487 0.012706222
000350 67 f1 a5 3b 4b ad af bc 5a bb 96 bc fc 52 29 bc
       0.005064178 -0.021444937 -0.018399883 -0.010334726
000360 6d f0 99 bc 8e 39 60 bc ca 3d 29 bc f9 f1 11 3d
       -0.018791402 -0.013685597 -0.010329673 0.035631154
000370 93 9c 20 3b a1 25 31 3d cf 05 9e bb 3e 90 04 bd
       0.0024507388 0.043248776 -0.00482247 -0.032364123
000380 be bb 0b bc 77 a0 c7 3c 49 35 eb bc ac a4 10 3d
       -0.008528648 0.024368508 -0.028711932 0.035313293
000390 b1 65 76 ba 76 d8 15 3d 38 dc e4 bb 0f 54 1f bd
       -0.00093993085 0.036583386 -0.00698426 -0.038898524
0003a0 33 59 c0 bc 1f e8 ef 3b c9 b3 e1 bc 9a ed 28 3d
       -0.023480034 0.007321372 -0.027551549 0.04124222
0003b0 52 3f 17 3d d7 63 25 bc 98 39 1b 3d 47 53 87 3c
       0.03692562 -0.010094604 0.037896723 0.016519202
0003c0 7c 8f 80 bb b9 23 27 bd f6 d2 0a bd 00 76 01 bd
       -0.0039233547 -0.040805552 -0.033892594 -0.031606674
0003d0 e3 26 11 bb ef fb 09 3d e1 d5 7c 3c d1 6d ca bb
       -0.0022148422 0.03368753 0.015431852 -0.006177642
0003e0 2a 59 ed 3c 15 4b ae 3c 48 97 fb bc 7e 9f 42 3c
       0.02897318 0.021276036 -0.030711785 0.011878846
0003f0 69 e6 9b 3b 1e 63 92 3c ab 50 df 3b b6 00 0e bc
       0.0047576916 0.017869528 0.0068150363 -0.008667162

fc_std.bias f4 [2]
000000 9a 35 62 3c 3c 0b 2a bd
       0.013806725 -0.04151462
