Scripts/SAC/run/model/leader_agent_actor_SAC_velodyne.pth (torch, 62392 bytes, 6 tensors)

fc1.weight f4 [512, 24]
-0.06765459 0.12514858 -0.10873445 -0.08877462 0.041939307 0.11804297 0.08758085 0.30190557
0.09978069 0.20902419 -0.09167498 -0.061741143 -0.2620539 -0.25073203 -0.058540035 0.011452521
0.12806214 0.13056327 -0.12845467 0.02975655 0.049956966 0.11701004 -0.010860329 0.0056363586
-0.11964406 -0.08038775 0.005567507 -0.21787125 -0.103013076 -0.008554197 -0.016471451 0.021672975
-0.33079156 -0.34716582 -0.25961477 -0.10951228 0.22951514 0.3796159 0.24129257 0.12408913
0.031322826 -0.044375718 0.11669524 -0.12731044 -0.078316115 -0.24994916 0.5232962 0.046390973
-0.1746603 -0.12409742 0.053061295 0.20280693 0.06677014 0.02169867 0.102477 -0.16397105
0.023626309 -0.17180113 -0.06777617 -0.061113875 0.10150425 0.03961044 -0.16082837 0.03419195
0.12240827 -0.0024842722 -0.009092632 0.051978357 0.11420136 0.18113703 -0.14506654 -0.12674306
0.021419983 0.14062467 0.15076634 0.15753439 0.017431838 -0.21392122 -0.010475673 -0.12847197
-0.24089018 0.15758404 0.06477898 -0.2731851 -0.018626893 -0.03734145 -0.049431868 -0.10213824
0.06856387 -0.105432056 0.09524835 0.08883284 0.1124527 -0.007005273 -0.26675442 -0.17970632
0.16166848 0.073947504 -0.12233799 -0.04340507 0.18486355 0.09478352 -0.07865427 0.1385536
0.051006023 0.13474679 -0.07761529 -0.19271493 -0.18941289 -0.11509123 -0.32016787 0.1488986
-0.0131062 0.2496937 0.22762573 -0.101018794 0.0026881972 0.017697511 0.11990092 -0.17206119
0.096286446 0.02992843 -0.13416171 0.060141444 -0.21559942 -0.21887948 -0.102811895 -0.15989423
-0.09250827 -0.1636903 -0.055581253 0.04178054 -0.14687265 -0.02685957 0.10925785 -0.06026868
-0.08441693 -0.109121166 -0.020827746 0.060841292 0.19218293 0.024731955 0.22784956 -0.032461558
-0.18336911 -0.096770614 0.1389892 -0.0013232311 -0.10145917 -0.15642273 -0.19103001 -0.17228246
-0.04140388 0.11194291 0.1103579 -0.19686384 0.12732898 -0.15972908 -0.043153945 -0.08276676
-0.03931743 -0.04007829 -0.1831708 -0.17624852 -0.031941243 0.0026397705 -0.09272848 0.076893404
-0.17978327 -0.0014426706 0.090311624 -0.06509474 0.18161012 0.061122715 -0.21564111 0.13809276
0.04100534 0.0255559 0.22168739 -0.15917929 0.08249471 -0.017151136 0.2142817 0.17476365
0.080022976 0.03656868 -0.023900595 -0.037258197 -0.16665705 0.07845777 0.20174846 0.0064864145
-0.4017573 -0.23145805 -0.35323232 -0.47820923 -0.562895 -0.28596056 -0.2143888 0.24708757
-0.056581054 0.032950204 -0.122114 -0.08060682 0.07254026 0.2920986 0.0071487 0.1196848
0.068440855 -0.04417289 0.0025680314 0.12856129 0.00092829356 -0.048400406 -0.3006345 -0.41628376
-0.15758756 -0.15604012 0.19741863 -0.06863685 0.024211092 0.29889077 0.07286914 0.06873457
-0.18855801 -0.0190896 -0.12017223 -0.042968534 -0.059659895 0.011480281 -0.016430682 0.17065673
0.029132394 0.21255857 0.13583308 -0.13542484 0.060559 -0.13827425 -0.15205802 0.012392716
0.071902 0.21600194 -0.0016845793 0.07192646 0.29473367 -0.0073875296 0.31713095 -0.17162436
-0.05710342 -0.10301969 -0.08308392 0.13656177 0.19794671 -0.029415311 -0.15811999 -0.021680173
00000000: 7d8e 8abd f326 003e 2bb0 debd 78cf b5bd
00000010: 8dc8 2b3d 83c0 f13d 975d b33d 5e93 9a3e
00000020: d259 cc3d 700a 563e 18c0 bbbd 48e4 7cbd
00000030: ee2b 86be f35f 80be adc7 6fbd 5ba3 3b3c
00000040: b922 033e 61b2 053e 9f89 03be 02c4 f33c
00000050: ad9f 4c3d f6a2 ef3d 85ef 31bc 34b1 b83b
00000060: f207 f5bd 55a2 a4bd a26f b63b a419 5fbe
00000070: 85f8 d2bd e726 0cbc 23ef 86bc 868b b13c
00000080: 835d a9be b8bf b1be 3aec 84be f947 e0bd
00000090: 0406 6b3e 045d c23e 6615 773e 7122 fe3d
000000a0: 5d4c 003d 50c3 35bd eafd ee3d ab5d 02be
000000b0: 3364 a0bd acf2 7fbe bdf6 053f 7604 3e3d
000000c0: 26da 32be ca26 febd cd56 593d 9fac 4f3e
000000d0: c8be 883d 69c1 b13c 76df d13d 07e8 27be
000000e0: f68b c13c a3ec 2fbe 3cce 8abd 8b52 7abd
000000f0: 76e1 cf3d 8f3e 223d 31b0 24be dc0c 0c3d
00000100: 30b1 fa3d 2ccf 22bb 43f9 14bc 42e7 543d
00000110: 67e2 e93d fc7b 393e 538c 14be efc8 01be
00000120: f678 af3c eaff 0f3e 7e62 1a3e b250 213e
00000130: 37cd 8e3c 2a0e 5bbe 28a2 2bbc 288e 03be
00000140: eaab 76be b65d 213e d8aa 843d ebde 8bbe
00000150: 6d97 98bc 59f3 18bd 1279 4abd db2d d1bd
00000160: 376b 8c3d c3ec d7bd 9111 c33d feed b53d
00000170: 9a4d e63d 7d8c e5bb 0994 88be ef04 38be
00000180: 6c8c 253e ca71 973d 578c fabd 84c9 31bd
00000190: df4c 3d3e dd1d c23d 7d15 a1bd ffe0 0d3e
000001a0: b1eb 503d 10fb 093e c4f4 9ebd 1057 45be
000001b0: 74f5 41be f3b4 ebbd 0bed a3be e078 183e
000001c0: 63bb 56bc b5af 7f3e b816 693e f1e2 cebd
000001d0: 772c 303b 5ffa 903c 9d8e f53d cf30 30be
000001e0: d431 c53d 782c f53c b061 09be e056 763d
000001f0: 18c6 5cbe f121 60be 0b8f d2bd 50bb 23be
00000200: fa74 bdbd 6e9e 27be 2ba9 63bd 1222 2b3d
00000210: c965 16be 9a08 dcbc 94c2 df3d 4bdc 76bd
00000220: c9e2 acbd eb7a dfbd f39e aabc b834 793d
00000230: 9acb 443e ab9a ca3c 6551 693e 69f6 04bd
00000240: 1dc5 3bbe ac2f c6bd 2f53 0e3e 4570 adba
00000250: d3c9 cfbd 482d 20be 5f9d 43be d06a 30be
00000260: 1d97 29bd 5342 e53d 5303 e23d ad96 49be
00000270: 8762 023e 0590 23be 31c2 30bd 9e81 a9bd
00000280: 500b 21bd 2229 24bd 2091 3bbe 7e7a 34be
00000290: d2d4 02bd 0000 2d3b 6ee8 bdbd 4a7a 9d3d
000002a0: 1b19 38be fe17 bdba 4df5 b83d 6450 85bd
000002b0: 01f8 393e d05b 7a3d 06d1 5cbe 3068 0d3e
000002c0: 37f5 273d 9b5a d13c 0502 633e e5ff 22be
000002d0: fdf2 a83d 8a80 8cbc a96c 5b3e 3ef5 323e
000002e0: 16e3 a33d 0ac9 153d 2ecb c3bc 0d9c 18bd
000002f0: 25a8 2abe 78ae a03d 2697 4e3e fd8b d43b
00000300: 22b3 cdbe 5703 6dbe deda b4be d7d7 f4be
00000310: e319 10bf 6c69 92be bd88 5bbe 8604 7d3e
00000320: 89c1 67bd cbf6 063d e816 fabd 3015 a5bd
00000330: fd8f 943d f38d 953e a43f ea3b 4e1d f53d
00000340: b82a 8c3d a2ee 34bd 6b4c 283b 92a5 033e
00000350: ba58 733a 813f 46bd c4ec 99be 2523 d5be
00000360: a25e 21be fbc8 1fbe 1c28 4a3e 7a91 8cbd
00000370: 5756 c63c 3608 993e 6a3c 953d b6c4 8c3d
00000380: 5a15 41be cb61 9cbc dc1c f6bd c6ff 2fbd
00000390: ef5d 74bd ca17 3c3c a399 86bc a3c0 2e3e
000003a0: 0fa7 ee3c f4a8 593e d417 0b3e cfac 0abe
000003b0: b70c 783d c497 0dbe 19b5 1bbe d10a 4b3c
000003c0: 5b41 933d 9d2f 5d3e 1acd dcba 2e4e 933d
000003d0: 55e7 963e 1713 f2bb fd5e a23e 4cbe 2fbe
000003e0: 47e5 69bd fdfb d2bd e727 aabd d9d6 0b3e
000003f0: 8bb2 4a3e 61f8 f0bc 35ea 21be 9e9a b1bc

fc1.bias f4 [512]
0.29519266 0.3265093 -0.5182979 0.2832656 -0.26695967 0.38125178 -0.0942939 0.27070072
-0.37202424 -0.36123854 -0.04723506 0.30143246 0.12014399 -0.070524655 -0.662143 -0.1817284
-0.25077784 -0.011735582 -0.23655374 0.17261449 0.68355083 -0.15939347 0.68976325 -0.07116269
0.11396974 0.026882727 -0.26179135 0.23693529 -0.5214843 -0.119642615 -0.2625784 0.7817533
0.3415377 0.4978995 -0.108160585 -0.5301499 -0.25841713 -0.20091784 -0.048204396 0.2873581
-0.20131603 0.36837226 -0.09981158 0.009135672 -0.0909817 0.057868496 0.04302352 0.14469247
0.54595673 0.32056138 0.0046716905 -0.026645744 -0.4210731 -0.34768257 -0.0034161566 0.3844653
0.3478375 -0.08706312 0.36649892 0.4205996 0.36305568 0.2707322 0.20220208 0.37579057
0.15923081 0.44040254 -0.58695924 0.4499484 -0.11839832 0.030922329 -0.11286806 -0.20285232
-0.1533657 0.5210502 0.011055597 0.52815133 0.10058297 -0.32889515 0.10610587 -0.085824415
0.16421574 0.058832515 0.55539143 -0.011060455 0.5709714 -0.35411012 -0.08493618 0.05079653
0.14734343 0.41068587 -0.34714648 0.0937499 0.5352227 0.09097917 0.28905782 -0.04503886
0.29455012 -0.12674053 -0.05099517 0.44141248 -0.25038806 -0.3857934 0.2163078 0.17966041
0.14596264 0.06234479 -0.43386248 -0.2951233 0.24466258 0.44263467 -0.37770656 0.15009707
-0.22103426 -0.47790033 0.21212015 -0.09684475 -0.24608374 0.33416498 -0.2692011 0.19511582
-0.33749363 -0.10005353 -0.47934604 -0.20302945 -0.16639075 0.3622352 0.14974068 0.5719758
-0.2808764 -0.4825159 -0.035507813 -0.05124791 -0.088383704 0.24888423 -0.35421675 -0.27373314
0.2904126 -0.04501216 0.24201834 -0.23449239 0.0498127 -0.34317982 -0.31321672 0.37025028
0.4345443 0.1769579 0.060461033 0.49894792 0.50177956 0.42532188 0.019248871 0.2492031
-0.0011861732 -0.41706827 0.00046793759 -0.09975591 -0.3008779 0.6919734 0.16917518 0.3304812
-0.35959354 0.14205343 -0.06893208 -0.7332942 0.04301968 0.091740474 -0.46329218 0.7407619
-0.39085817 -0.22773123 0.49735156 -0.020549245 -0.25299513 -0.064179614 0.15417556 0.44615918
0.2784802 0.04099221 0.13860804 0.4906218 -0.14106019 0.11661562 -0.44650862 0.16183348
0.10754618 -0.13833083 -0.1514189 0.7111791 -0.05487544 0.06171269 0.4995295 0.022535421
0.41747215 0.12229296 0.24844024 0.42467794 -0.062829286 -0.19350573 -0.3663453 -0.09882162
0.39608923 0.33209795 0.16534524 -0.16582236 0.08669786 0.39449883 0.35437727 -0.720784
0.06814434 0.51966906 -0.40754578 0.12272708 -0.03697284 0.5713129 0.080402054 0.39162415
-0.42197967 0.28619888 -0.05136282 -0.29219288 0.5792506 -0.422941 0.033613626 0.050430138
0.5345213 -0.4755186 -0.13096336 0.46861416 0.49279836 -0.6602826 -0.23625438 0.62624806
-0.10819062 0.104060896 -0.007193685 -0.08092149 -0.165526 0.5396275 0.5141391 -0.03134495
0.54679024 -0.58755165 0.15668316 -0.47646555 0.15532221 0.3457791 0.10974237 -0.5226665
-0.29012603 0.29585344 -0.049979754 0.47915253 0.061522834 -0.71554226 -0.06465604 0.22566366
00000000: 7e23 973e 3a2c a73e 2caf 04bf 3008 913e
00000010: f0ae 88be 6f33 c33e 291d c1bd 4999 8a3e
00000020: f679 bebe 42f4 b8be 8d79 41bd 5b55 9a3e
00000030: 0d0e f63d 3b6f 90bd 3482 29bf 0217 3abe
00000040: f465 80be 9946 40bc 253b 72be dac1 303e
00000050: 30fd 2e3f 0b38 23be 5394 303f bfbd 91bd
00000060: f868 e93d 2a39 dc3c 8409 86be 2a9f 723e
00000070: ff7f 05bf 3007 f5bd ad70 86be fc20 483f
00000080: 08de ae3e afec fe3e 4c83 ddbd e7b7 07bf
00000090: 404f 84be 68bd 4dbe f971 45bd 9a20 933e
000000a0: ca25 4ebe 4a9b bc3e 036a ccbd c9ad 153c
000000b0: 9d54 babd 8407 6d3d 6e39 303d 432a 143e
000000c0: d2c3 0b3f 9f20 a43e fb14 993b 2d48 dabc
000000d0: e596 d7be 7303 b2be 99e1 5fbb a3d8 c43e
000000e0: c217 b23e 264e b2bd bfa5 bb3e d558 d73e
000000f0: 6fe2 b93e 699d 8a3e 100e 4f3e 9f67 c03e
00000100: 670d 233e 717c e13e f642 16bf a35f e63e
00000110: d27a f2bd d350 fd3c 5f27 e7bd 85b8 4fbe
00000120: e60b 1dbe 8c63 053f 8922 353c ed34 073f
00000130: 72fe cd3d f264 a8be 094e d93d b6c4 afbd
00000140: 2c28 283e 5dfa 703d 222e 0e3f e936 35bc
00000150: 2f2b 123f ec4d b5be 05f3 adbd 0610 503d
00000160: 32e1 163e 6b45 d23e 2fbd b1be f3ff bf3d
00000170: 5b04 093f 4953 ba3d 63ff 933e ab7a 38bd
00000180: 46cf 963e 45c8 01be 50e0 50bd d100 e23e
00000190: dd32 80be b686 c5be cb7f 5d3e e6f8 373e
000001a0: 3b77 153e 405d 7f3d 3923 debe 671a 97be
000001b0: d488 7a3e 03a1 e23e c162 c1be 0cb3 193e
000001c0: ce56 62be 5aaf f4be 0636 593e 8a56 c6bd
000001d0: 60fd 7bbe ac17 ab3e bad4 89be 71cc 473e
000001e0: f7cb acbe dde8 ccbd d86c f5be f4e6 4fbe
000001f0: 5662 2abe e476 b93e 9f55 193e 026d 123f
00000200: 08cf 8fbe 530c f7be a470 11bd 54e9 51bd
00000210: 8402 b5bd 82db 7e3e e65b b5be c026 8cbe
00000220: f6b0 943e ac5e 38bd a8d3 773e c61e 70be
00000230: 6708 4c3d 44b5 afbe f15d a0be 7291 bd3e
00000240: 977c de3e 7434 353e fda5 773d 1a76 ff3e
00000250: a074 003f cac3 d93e cfaf 9d3c 192f 7f3e
00000260: 5e79 9bba f989 d5be 8555 f539 d44c ccbd
00000270: ab0c 9abe 2b25 313f 423c 2d3e d534 a93e
00000280: a51c b8be 7476 113e 432c 8dbd 2bb9 3bbf
00000290: 6735 303d 6ee2 bb3d a234 edbe 92a2 3d3f
000002a0: 901e c8be 6032 69be dda4 fe3e e456 a8bc
000002b0: 9488 81be 9a70 83bd 33e0 1d3e fa6e e43e
000002c0: f594 8e3e 73e7 273d 44ef 0d3e c832 fb3e
000002d0: 1572 10be 2cd4 ee3d c79c e4be adb7 253e
000002e0: 2c41 dc3d 99a6 0dbe 8e0d 1bbe d50f 363f
000002f0: 12c5 60bd 72c6 7c3d 55c2 ff3e 349c b83c
00000300: e9be d53e bb74 fa3d 1e67 7e3e 636f d93e
00000310: a4ac 80bd 5e26 46be 9c91 bbbe fd62 cabd
00000320: 35cc ca3e be08 aa3e 4350 293e 56cd 29be
00000330: a68e b13d c0fb c93e f070 b53e 4d85 38bf
00000340: 428f 8b3d 0809 053f d7a9 d0be 5658 fb3d
00000350: d570 17bd 9041 123f d5a9 a43d f682 c83e
00000360: b80d d8be a988 923e d261 52bd 4e9a 95be
00000370: c449 143f b98b d8be 71ae 093d d58f 4e3d
00000380: 63d6 083f 2d77 f3be 421b 06be 32ee ef3e
00000390: 1150 fc3e 4808 29bf abec 71be cb51 203f
000003a0: 0b93 ddbd e11d d53d 01b9 ebbb 2bba a5bd
000003b0: a67f 29be 0725 0a3f 9f9e 033f 9063 00bd
000003c0: 72fa 0b3f c969 16bf 8d71 203e 4bf3 f3be
000003d0: c90c 1f3e f509 b13e 9cc0 e03d 79cd 05bf
000003e0: 668b 94be 1a7a 973e 92b7 4cbd 7b53 f53e
000003f0: 5eff 7b3d c72d 37bf 636a 84bd 6014 673e

fc_mu.weight f4 [2, 512]
-0.13117255 -0.54956406 0.080352716 -0.039914902 0.26863667 -0.05662392 -0.03370789 -0.11203969
0.24901061 0.0827133 0.4749652 -0.017469069 0.054392558 0.032632615 0.066112176 0.16062753
0.059438113 -0.0122247655 0.002286269 0.08025839 -0.5288995 -0.17906475 -0.080428876 0.022764735
0.3024894 0.06480657 0.19934775 -0.021194862 0.07223721 -0.45953873 -0.5083368 -0.06905292
-0.40849736 0.4727504 0.022339163 0.050172158 -0.16026463 0.09901881 0.2289478 0.36259452
0.06694614 -0.07889191 -0.3561013 0.041418124 -0.2832683 -0.044374593 -0.0077133104 -0.114082135
-0.3558881 -0.029193267 -0.023087889 -0.064495005 0.035601247 0.17594692 -0.27208906 -0.22918358
-0.050344918 0.42556825 -0.05448037 -0.22682583 -0.3159873 -0.091155574 -0.12669508 -0.06361261
-0.07977929 -0.231148 0.17444497 -0.12782472 -0.16678014 -0.018088259 0.064602256 0.12710276
0.04252061 -0.3812193 -0.058603276 -0.10884256 -0.18550964 0.03775001 -0.070543006 -0.15436192
-0.08459289 0.022459744 -0.16347109 0.32661352 -0.26015735 0.081296735 -0.19063841 -0.030565375
0.054734346 0.05404043 0.071949534 0.47772697 -0.047585532 0.013826082 -0.12196766 0.011598334
0.82727647 0.02938485 0.029046293 -0.0565311 -0.2904059 0.14276163 -0.14773443 -0.058575056
0.016906656 0.52443355 0.47195864 0.069927394 0.40017834 -0.2866277 0.14400159 0.8236565
0.027710805 0.16796318 -0.5559316 -0.15583004 -0.77717876 -0.5668716 0.032109614 0.852244
0.0022127682 -0.50785285 0.0567135 0.17590186 0.026093585 -0.052015506 -0.2414532 -0.08686032
0.021209925 0.30345875 -0.04667809 0.38679987 -0.29268143 0.12141628 0.09719891 0.105739385
-0.2976254 -0.013376787 -0.021023998 0.037620883 -0.9222117 0.0837657 0.05474308 -0.15916379
-0.3472196 0.0072755665 -0.066973016 -0.15882157 -0.39428183 -0.16116023 0.12892431 -0.040192887
0.065909915 0.25871244 0.03206152 0.01513887 0.029677851 -0.15061355 -0.12621418 -0.11465683
0.08585843 -0.23950468 0.21960725 0.07481982 -0.037302226 -0.10816246 0.09834104 0.18039921
0.14723434 0.06869831 -0.1492303 0.014656642 0.043871287 0.07478097 -0.21291853 0.18121712
0.045263544 -0.071481846 -0.107971765 -0.22581111 0.033184126 0.0062104943 0.37449348 -0.4273608
0.41595364 0.039277755 0.10093901 -0.05510456 0.022880098 0.14033695 -0.114360474 0.02364935
-0.08008972 0.11809254 -0.08038189 -0.19243522 -0.046520956 -0.069305696 0.063525535 0.21760783
-0.1703261 -0.08585963 -0.1155627 -0.10500433 -0.006393524 -0.5423824 -0.048284154 0.13884349
0.22225375 -0.12833028 0.055566624 -0.22827935 0.035979547 -0.093594424 -0.0056405957 -0.049498837
0.048164785 -0.061536435 -0.11007341 0.08946614 -0.0810345 0.18993655 -0.003695533 -0.18089703
0.0023559995 0.12658544 -0.02046996 0.07515358 -0.10632774 0.15119693 0.15131937 -0.17585659
0.107765675 0.22874229 0.4449391 0.6654376 0.5348536 0.52948177 -0.35013282 0.47520557
-0.26609844 0.23274052 -0.04178136 0.13891758 -0.14195736 0.41686007 -0.41911688 0.032948714
0.038514066 0.36624828 0.18486151 -0.055924203 -0.1139939 0.20423038 0.1737796 -0.18329225
00000000: 1952 06be 3bb0 0cbf f78f a43d cf7d 23bd
00000010: bf8a 893e 7cee 67bd 4911 0abd 1175 e5bd
00000020: a3fc 7e3e 9765 a93d a42e f33e 4b1b 8fbc
00000030: bbca 5e3d c7a9 053d d265 873d 8b7b 243e
00000040: 6175 733d 624a 48bc 3bd5 153b 835e a43d
00000050: f565 07bf c05c 37be e5b7 a4bd 1c7d ba3c
00000060: e4df 9a3e 4fb9 843d d121 4c3e d9a0 adbc
00000070: 1af1 933d a948 ebbe 5c22 02bf 9e6b 8dbd
00000080: 9126 d1be 570c f23e 9f00 b73c 5281 4d3d
00000090: 691c 24be 60ca ca3d 4b71 6a3e fda5 b93e
000000a0: 0f1b 893d 1592 a1bd e952 b6be 0da6 293d
000000b0: 8b08 91be 22c2 35bd f0bf fcbb e5a3 e9bd
000000c0: f736 b6be b826 efbc d022 bdbc f515 84bd
000000d0: 9dd2 113d 6e2b 343e 424f 8bbe 1aaf 6abe
000000e0: 7936 4ebd 15e4 d93e cf26 5fbd 0845 68be
000000f0: 16c9 a1be c6af babd 5bbc 01be 5447 82bd
00000100: 5363 a3bd 10b2 6cbe b4a1 323e 7ce4 02be
00000110: 6ac8 2abe d42d 94bc 304e 843d 3a27 023e
00000120: 172a 2e3d 2d2f c3be fd09 70bd d9e8 debd
00000130: 3df6 3dbe c19f 1a3d da78 90bd 0d11 1ebe
00000140: 0a3f adbd 7ffd b73c f764 27be e339 a73e
00000150: 5833 85be e77e a63d b736 43be 3d64 fabc
00000160: 1f31 603d 7f59 5d3d 475a 933d a198 f43e
00000170: 0ce9 42bd cb86 623c 2eca f9bd f006 3e3c
00000180: 64c8 533f 7fb8 f03c 7ef2 ed3c 288d 67bd
00000190: 15b0 94be 1b30 123e b247 17be 66ec 6fbd
000001a0: d47f 8a3c 4741 063f 90a4 f13e 1836 8f3d
000001b0: 2de4 cc3e dec0 92be 2775 133e 27db 523f
000001c0: c501 e33c 8afe 2b3e 8951 0ebf e991 1fbe
000001d0: 30f5 46bf 7f1e 11bf 5f85 033d aa2c 5a3f
000001e0: 1704 113b a502 02bf 6a4c 683d 9e1f 343e
000001f0: 37c2 d53c 360e 55bd 823f 77be d3e3 b1bd
00000200: 70c0 ad3c f25e 9b3e 8631 3fbd a20a c63e
00000210: 57da 95be 19a9 f83d 3910 c73d e48d d83d
00000220: 5b62 98be 502a 5bbc 853a acbc 5b18 1a3d
00000230: 1116 6cbf 5a8d ab3d 483a 603d d5fb 22be
00000240: c4c6 b1be e067 ee3b 2629 89bd 1fa2 22be
00000250: 4fdf c9be 3007 25be bc04 043e 4ca1 24bd
00000260: c7fb 863d f575 843e f152 033d 0609 783c
00000270: f71e f33c 703a 1abe 4a3e 01be 33d1 eabd
00000280: 8bd6 af3d b740 75be b9e0 603e 223b 993d
00000290: 38ca 18bd 4884 ddbd 0767 c93d 92ba 383e
000002a0: 99c4 163e b3b1 8c3d d4cf 18be 6a22 703c
000002b0: 61b2 333d c426 993d 5107 5abe fb90 393e
000002c0: 4466 393d 1365 92bd 4d20 ddbd 073b 67be
000002d0: 14ec 073d 6781 cb3b 9cbd bf3e 09cf dabe
000002e0: e0f7 d43e b6e1 203d 1db9 ce3d 52b5 61bd
000002f0: 0b6f bb3c 7db4 0f3e d335 eabd 48bc c13c
00000300: 1406 a4bd 80da f13d 439f a4bd bd0d 45be
00000310: c28c 3ebd 25f0 8dbd ad19 823d 96d4 5e3e
00000320: f769 2ebe 2cd7 afbd 23ac ecbd 830c d7bd
00000330: c480 d1bb 93d9 0abf 9bc5 45bd fd2c 0e3e
00000340: 7d96 633e 0369 03be d499 633d 10c2 69be
00000350: 4a5f 133d 6fae bfbd bfd4 b8bb 4bbf 4abd
00000360: 7048 453d a10d 7cbd 2b6e e1bd 063a b73d
00000370: 6af5 a5bd ba7e 423e c130 72bb 123d 39be
00000380: 1d67 1a3b 9d9f 013e 9eb0 a7bc 1fea 993d
00000390: 5cc2 d9bd 5ed3 1a3e 77f3 1a3e c013 34be
000003a0: 40b4 dc3d 6b3b 6a3e 0fcf e33e 1e5a 2a3f
000003b0: 2aec 083f 1e8c 073f 9c44 b3be 254e f33e
000003c0: 0e3e 88be 8853 6e3e ee22 2bbd 6940 0e3e
000003d0: 455d 11be af6e d53e 7d96 d6be 3bf5 063d
000003e0: edc0 1d3d e584 bb3e 564c 3d3e c710 65bd
000003f0: a275 e9bd c521 513e 48f3 313e f7b0 3bbe

fc_mu.bias f4 [2]
-0.35541564 0.030378243
00000000: 0af9 b5be cbdb f83c

fc_std.weight f4 [2, 512]
-0.025821952 -0.18295448 0.014776495 -0.007986874 0.084437974 0.0074187554 -0.008319825 -0.03889319
-0.030831497 0.021326985 0.096436486 -0.052944794 0.026904864 -0.027346846 0.0778553 0.031066056
-0.0010774219 0.015314322 -0.012187541 -0.0533152 0.08916586 -0.052209944 -0.058593523 0.018467702
0.0913468 0.03246377 0.0684781 -0.04258775 0.010678613 -0.0900314 -0.088597275 -0.08575937
-0.2606388 -0.035585653 0.031028472 0.06735513 -0.082961425 0.09013756 0.08641754 0.1571207
0.06289876 -0.024824843 -0.059410978 0.012803759 -0.03256123 -0.031043569 -0.025221042 -0.053752832
-0.015889633 -0.023849603 0.0050474573 -0.05742951 0.032126825 0.040157795 0.08909834 -0.09517969
-0.011060677 0.15946808 0.010160028 -0.105085805 -0.12309222 -0.02092193 -0.08977196 -0.049028598
-0.024148311 -0.09036451 0.09023477 -0.053297244 0.008410843 0.040551882 -0.022274587 0.02716309
0.041012194 -0.14625211 0.015502386 -0.13257715 -0.12334936 -0.00584172 -0.003806651 0.014852807
-0.08354936 0.00936641 -0.08506212 0.021569049 -0.046966173 -0.012690676 -0.07975249 0.0105785765
-0.0020899712 -0.035302933 0.046904173 -0.06939261 -0.038752098 -0.008250299 -0.016518157 0.048700016
0.037780553 0.018287431 -0.014358869 -0.04572789 -0.12516546 0.009547763 -0.12635027 0.0889741
-0.08269254 0.10763228 0.232145 -0.015993012 0.06706541 -0.090818696 0.050073612 0.09334753
0.037799235 0.0027447592 0.026312482 -0.06906328 -0.028594749 -0.19155285 0.05061268 0.18320519
-0.008725527 -0.049990747 0.0027882261 0.028318984 -0.021463932 -0.0060079424 -0.03839959 -0.031276226
0.037988275 0.11004565 -0.029994467 -0.11758107 0.08104494 0.08100139 0.06637779 -0.0027158249
-0.06493875 0.032368273 -0.006680823 0.037796967 0.15316248 0.076530084 0.04790435 -0.035998765
0.092837915 0.04948155 -0.07214774 -0.046249658 -0.108404376 -0.052084308 0.02844459 -0.049883094
-0.042479657 0.059736583 0.04055742 -0.0061306744 0.0038510887 -0.06520504 -0.032826263 0.00065037265
-0.015854366 -0.06629454 -0.02697184 0.077252485 -0.022219185 -0.13220614 0.037093647 0.08389509
0.036735725 -0.026659619 -0.06391662 0.042070914 0.039421856 0.020752914 -0.059447695 0.025148181
-0.03556101 -0.020564977 -0.14047532 -0.13081335 -0.012066929 -0.010075615 0.1110018 -0.16740605
-0.03898219 -0.013027425 -0.01427394 -0.042068895 -0.0035803937 0.13966589 -0.021536399 -0.0030464518
-0.080545515 -0.002573622 0.016909763 -0.056590416 0.057185493 -0.110255286 0.026130078 -0.02711743
-0.09363647 -0.0015225308 -0.08556791 -0.014915304 -0.0010782059 -0.097738236 -0.016082985 0.09270955
0.07580465 -0.045829024 -0.018667703 -0.054360133 0.08276509 -0.06667373 -0.022456778 -0.042357277
-0.0093770875 -0.058463827 -0.013426019 0.04523405 -0.016319174 0.08873301 0.3061023 0.009799164
-0.07899575 0.06781003 -0.0065855104 -0.00426672 -0.040462594 0.07301865 0.06482007 -0.05580299
-0.011741592 0.12082733 0.12055151 0.19661076 0.033876844 0.052653275 -0.02210039 0.043741815
-0.17742679 0.04868107 -0.023562977 0.03704819 -0.040753283 0.19034177 0.022272164 0.014596288
0.040383134 0.037764467 0.010186043 0.0020513753 -0.10646036 0.087177776 0.09575388 -0.043255534
00000000: 8f88 d3bc 6b58 3bbe 1d19 723c 61db 02bc
00000010: d1ed ac3d 0819 f33b e04f 08bc 774e 1fbd
00000020: 5692 fcbc eeb5 ae3c 7e80 c53d a4dc 58bd
00000030: 9767 dc3c 7e06 e0bc 9972 9f3d 3e7e fe3c
00000040: 4838 8dba ece8 7a3c 41ae 47bc 0a61 5abd
00000050: 979c b63d 18da 55bd c3ff 6fbd 9449 973c
00000060: 0814 bb3d bbf8 043d 3f3e 8c3d 7e70 2ebd
00000070: 59f5 2e3c 6262 b8bd 7d72 b5bd 9ca2 afbd
00000080: 7372 85be 43c2 11bd 6c2f fe3c 7df1 893d
00000090: aee7 a9bd 0b9a b83d aefb b03d 40e4 203e
000000a0: 11d1 803d 785d cbbc ed58 73bd dcc6 513c
000000b0: ed5e 05bd 154f febc 5c9c cebc ee2b 5cbd
000000c0: fa2a 82bc 3e60 c3bc 2465 a53b 353b 6bbd
000000d0: 6b97 033d 807c 243d 3179 b63d 92ed c2bd
000000e0: d737 35bc 9a4b 233e 3f76 263c 3a37 d7bd
000000f0: c617 fcbd 7864 abbc 5dda b7bd 36d2 48bd
00000100: aed2 c5bc 0711 b9bd 02cd b83d 364e 5abd
00000110: a2cd 093c bb19 263d 3279 b6bc 2185 de3c
00000120: 67fc 273d 1dc3 15be b8fd 7d3c 4ec2 07be
00000130: 979e fcbd e66b bfbb 0279 79bb 3059 733c
00000140: ed1b abbd 9275 193c 0c35 aebd 93b1 b03c
00000150: 9a5f 40bd 8eec 4fbc 4655 a3bd c451 2d3c
00000160: e6f7 08bb cf99 10bd 971e 403d b61d 8ebd
00000170: 85ba 1ebd 432c 07bc 1651 87bc ab79 473d
00000180: c8bf 1a3d 86cf 953c 7641 6bbc 2b4d 3bbd
00000190: 602b 00be 386e 1c3c f761 01be 0e38 b63d
000001a0: b55a a9bd 506e dc3d 6bb7 6d3e c703 83bc
000001b0: 9759 893d 27ff b9bd fd19 4d3d fd2c bf3d
000001c0: 5fd3 1a3d 6be1 333b 468d d73c 0d71 8dbd
000001d0: 893f eabc 6e26 44be 3e4f 4f3d 249a 3b3e
000001e0: 83f5 0ebc 19c3 4cbd acba 363b 37fd e73c
000001f0: 21d5 afbc 46de c4bb e348 1dbd 801b 00bd
00000200: 9899 1b3d 9d5f e13d f5b6 f5bc 58ce f0bd
00000210: e4fa a53d 0fe4 a53d 14f1 873d fbfb 31bb
00000220: 9bfe 84bd 9894 043d ceea dabb fed0 1a3d
00000230: a0d6 1c3e cebb 9c3d 5a37 443d 7173 13bd
00000240: ce21 be3d 2aad 4a3d 32c2 93bd 4870 3dbd
00000250: 1d03 debd 5b56 55bd a104 e93c 3752 4cbd
00000260: 26ff 2dbd 59ae 743d 8a1f 263d d3e3 c8bb
00000270: 8c62 7c3b 388a 85bd d574 06bd c57d 2a3a
00000280: 04e1 81bc 6fc5 87bd 0cf4 dcbc 8d36 9e3d
00000290: 0205 b6bc 0c61 07be 82ef 173d 30d1 ab3d
000002a0: 3378 163d 4665 dabc b8e6 82bd 8d52 2c3d
000002b0: d078 213d 0402 aa3c 6d7f 73bd 8f03 ce3c
000002c0: 6ca8 11bd e277 a8bc c3d8 0fbe eff3 05be
000002d0: 5eb4 45bc 3114 25bc e954 e33d 7e6c 2bbe
000002e0: caab 1fbd fb70 55bc 3edd 69bc 6f50 2cbd
000002f0: 0aa5 6abb 9304 0f3e 1a6d b0bc fba6 47bb
00000300: 0cf5 a4bd 36aa 28bb 5886 8a3c 5acb 67bd
00000310: 563b 6a3d 86cd e1bd bf0e d63c 5f25 debc
00000320: 7ac4 bfbd a88f c7ba 3a3e afbd 525f 74bc
00000330: 9652 8dba fc2a c8bd 77c0 83bc 81de bd3d
00000340: 783f 9b3d 37b7 3bbd 03ed 98bc bba8 5ebd
00000350: be80 a93d 3d8c 88bd 47f7 b7bc d37e 2dbd
00000360: 5ba2 19bc c477 6fbd cef8 5bbc 5747 393d
00000370: caaf 85bc a7b9 b53d 71b9 9c3e ac8c 203c
00000380: 86c8 a1bd fcdf 8a3d 44cb d7bb d7cf 8bbb
00000390: 1bbc 25bd cd8a 953d 63c0 843d ad91 64bd
000003a0: ce5f 40bc 5274 f73d b6e3 f63d 5554 493e
000003b0: 72c2 0a3d f6aa 573d e10b b5bc 9e2a 333d
000003c0: 5eaf 35be cd65 473d 2507 c1bc d8bf 173d
000003d0: eaec 26bd f4e8 423e 1d74 b63c 4525 6f3c
000003e0: c968 253d eaae 1a3d 5ce3 263c 5e70 063b
000003f0: e407 dabd 438a b23d 9c1a c43d b72c 31bd

fc_std.bias f4 [2]
-0.5337558 -0.7245084
00000000: 38a4 08bf 6279 39bf
