Scripts/SAC/model/leader_agent_actor_SAC_velodyne.pth (torch, 62392 bytes, 6 tensors)

fc1.weight f4 [512, 24]
000000 f0 5b 75 bb 32 90 dc 3d 1d db 2c be 89 74 1a be
       -0.0037438832 0.107696906 -0.1688046 -0.15083517
000010 91 94 9f bd d9 30 60 3d 28 3e 34 bb 69 16 26 3e
       -0.07792009 0.054734085 -0.0027502868 0.16219486
000020 df 1a 86 bc 2e 72 5d 3d 32 ba 83 bd 29 ea 35 bd
       -0.016370235 0.05406397 -0.06431998 -0.044412766
000030 98 46 45 be de 1d 09 be ff aa a7 bd 0f 0f 31 3c
       -0.1926521 -0.133903 -0.08186912 0.010806813
000040 3a e9 ae 3d 38 16 03 3e 0c 5a 08 be 3f 68 aa bd
       0.08540578 0.12801445 -0.133156 -0.083206646
000050 9d 2a 98 3d 7b 01 2a 3e bd 34 2f bd 20 11 1a 3e
       0.07430003 0.16602127 -0.042774905 0.15045595
000060 ea 18 0e bd 38 99 a1 3c 6e 58 3b 3e c4 2f 44 be
       -0.03469173 0.01972638 0.18295452 -0.19158846
000070 d1 e6 05 be 4c 14 5d bd 80 b9 a7 bd 7b 2d 32 3e
       -0.1307633 -0.053974435 -0.08189678 0.17400162
000080 ab e8 09 be 2f 6a c5 bd 50 86 14 be b6 47 46 be
       -0.13467662 -0.096393935 -0.14504361 -0.19363293
000090 a7 d9 fa bd 57 f5 31 3e 34 eb b6 3d eb 05 c7 3d
       -0.12248545 0.17378746 0.0893158 0.09717926
0000a0 e4 c9 13 3c 34 d7 d9 bd ba 5f 06 3d 3e f0 44 be
       0.009020302 -0.1063675 0.032806136 -0.1923227
0000b0 13 ca 18 be f5 c7 d3 bd 12 23 01 3e 7b a5 f7 3d
       -0.14920835 -0.10340873 0.12611035 0.1209211
0000c0 fc a4 b8 bd b3 25 05 bc 30 0e 05 3e 03 19 50 3e
       -0.09015843 -0.008126664 0.12993693 0.20322041
0000d0 2f ca a4 3d 34 96 de 3c 1d 11 0b 3e ab 4b f7 bd
       0.08046376 0.027171232 0.13580747 -0.120749794
0000e0 d7 d4 16 3d bd dc 21 be ec 1e 10 be 75 6f d6 bd
       0.036824074 -0.15806861 -0.14074296 -0.104704775
0000f0 f9 7b be 3d 11 e8 a8 3d e3 52 f7 bd 93 37 78 3d
       0.0930099 0.08247388 -0.12076356 0.060599875
000100 91 a4 e3 3d 03 46 d9 bc 77 a5 ec 3b 5b 46 39 3d
       0.11115373 -0.026522642 0.0072218734 0.04523311
000110 5e d1 00 3e 3a 21 55 3e 59 b9 21 be 1f 9e a5 bd
       0.12579867 0.20813456 -0.15793361 -0.080868
000120 8f 92 7d 3d 8b fd 19 3e c5 47 22 3e 18 50 25 3e
       0.061907347 0.15038125 0.1584769 0.16143835
000130 a1 06 b6 3c be b5 48 be 90 6a 85 3a fc 0a 14 be
       0.022219958 -0.19600579 0.0010178853 -0.14457315
000140 18 0c 54 be bb be 27 3e d7 a4 0c 3e ce 92 62 be
       -0.20707738 0.16381352 0.13734756 -0.22126314
000150 04 5b ab 3c 9a b8 53 bd f7 78 50 bd 1b 65 e2 bd
       0.020917423 -0.05168972 -0.05089661 -0.110544406
000160 3b 75 7b 3d 09 d8 0d be e5 36 6a 3d 4d 71 af 3d
       0.061391097 -0.13851942 0.057181258 0.08566532
000170 f0 32 07 3e 96 03 92 3d e9 22 5d be 7c dd 06 be
       0.13203025 0.0712959 -0.21595348 -0.13170427
000180 89 bc 02 3e ef 6e 8c 3d 8e bd 09 be a4 62 bf bd
       0.12767233 0.068570964 -0.13451216 -0.09344986
000190 3b 45 5d 3e 3d aa 25 3e bb 69 82 bd d1 d3 d7 bc
       0.2160844 0.16178222 -0.06367823 -0.02634612
0001a0 68 41 2c be 77 eb ae 3c 46 48 03 be 94 59 08 be
       -0.16821826 0.021352513 -0.12820539 -0.13315421
0001b0 f6 c5 45 3c a9 9d 61 3d d6 47 71 bd a4 a1 15 3e
       0.012071123 0.055081997 -0.0589064 0.14612442
0001c0 a9 ae cb bd 3b 4f 56 3e dd 33 28 3e 57 8c 16 be
       -0.09945423 0.20928662 0.16426034 -0.14701973
0001d0 88 52 c7 bc 5a 43 ea 3b e9 41 61 3d 22 ee e1 3c
       -0.024331346 0.007149142 0.054994497 0.02757937
0001e0 f7 cf a7 3d ac 41 71 3c 8a 01 c7 bd c2 2e c5 3d
       0.08193963 0.01472513 -0.097170904 0.09628059
0001f0 51 c9 48 be 9a a7 f8 bd 27 80 53 bd 38 0d cd bd
       -0.19608046 -0.121413425 -0.051635887 -0.10012287
000200 e3 73 93 bd fd 2f 2c be bc 3f 34 bd c3 a8 35 3d
       -0.07199838 -0.16815181 -0.044006094 0.044350397
000210 aa 59 07 be 8e 0c 06 bc f6 fa 17 3e e6 bd 97 bc
       -0.13217798 -0.008181704 0.14841828 -0.018523168
000220 26 d8 f3 3b d7 7d 78 bc 4b bb 34 3d 93 f5 07 3e
       0.0074415384 -0.015166721 0.04412393 0.13277273
000230 a8 a8 46 3e 7a 2b 03 3e dd b5 47 3e a3 09 9a bc
       0.19400275 0.12809554 0.19502969 -0.018803423
000240 1d c5 3b be ac 2f c6 bd 2f 53 0e 3e 45 70 ad ba
       -0.18336911 -0.096770614 0.1389892 -0.0013232311
000250 d3 c9 cf bd 48 2d 20 be 5f 9d 43 be d0 6a 30 be
       -0.10145917 -0.15642273 -0.19103001 -0.17228246
000260 1d 97 29 bd 53 42 e5 3d 53 03 e2 3d ad 96 49 be
       -0.04140388 0.11194291 0.1103579 -0.19686384
000270 87 62 02 3e 05 90 23 be 31 c2 30 bd 9e 81 a9 bd
       0.12732898 -0.15972908 -0.043153945 -0.08276676
000280 50 0b 21 bd 22 29 24 bd 20 91 3b be 7e 7a 34 be
       -0.03931743 -0.04007829 -0.1831708 -0.17624852
000290 d2 d4 02 bd 00 00 2d 3b 6e e8 bd bd 4a 7a 9d 3d
       -0.031941243 0.0026397705 -0.09272848 0.076893404
0002a0 87 5f 33 be 8b a5 a0 bb 6e 5f 41 3e 2f 8e 97 bd
       -0.1751691 -0.0049025468 0.1888406 -0.07400166
0002b0 a6 e7 45 3e bc b6 a8 3d 92 66 34 be 84 a5 0b 3e
       0.19326648 0.08237979 -0.17617252 0.13637358
0002c0 14 01 85 bc 23 8e ac bd a7 d9 2e 3e 72 fd 20 be
       -0.016235866 -0.08425548 0.17075215 -0.15721682
0002d0 33 b0 f1 3c fa 6d 12 bd 31 c1 1b 3e 36 24 83 3d
       0.029502964 -0.035749413 0.15210415 0.06403391
0002e0 9a a7 d7 3d 19 59 a3 3d 93 23 2c bd d3 e2 10 bd
       0.10530014 0.079759784 -0.042026114 -0.035372566
0002f0 71 84 24 be 4d b5 e3 3d 17 1e 2d 3e 22 00 11 3e
       -0.16066147 0.11118565 0.1690601 0.14160207
000300 98 61 0c be 09 69 82 3c 76 22 0d be fb e0 d9 bd
       -0.13709104 0.015919225 -0.13782677 -0.10638615
000310 1d 56 e9 bd 6e 76 97 3d 1f ea ee bd 6b 01 81 3a
       -0.11393378 0.073956355 -0.11665749 0.0009842342
000320 be b8 79 3c 42 a5 0d 3e 6f bd 16 be f4 5e 06 be
       0.0152418 0.13832572 -0.147207 -0.13122159
000330 cc 19 e2 bd a0 64 19 3e a4 5e 89 bd b4 8d 36 3e
       -0.110400766 0.14979792 -0.067075044 0.17827493
000340 82 cd a5 3d 73 2d 09 3d 5a c7 d2 3b 5e df 02 bd
       0.08095838 0.03349061 0.006432456 -0.0319513
000350 c0 29 fd 3c 3a bb 4e bd 29 20 93 3b 23 35 e9 3c
       0.030903697 -0.050471522 0.004489918 0.02846772
000360 b2 83 11 be e3 5f b7 bd 59 af 3a 3e 6a f7 17 be
       -0.14210394 -0.08953836 0.18230952 -0.14840475
000370 58 f8 45 3b cc 2e 61 3e ce 46 bc 3d be 43 c5 3c
       0.003020784 0.21990508 0.091931924 0.024080154
000380 a2 78 22 be 3b e7 f3 3d b5 d3 03 be 76 5f 2b bd
       -0.1586633 0.11909338 -0.12873729 -0.041839086
000390 8c 47 5a bd 14 b9 7c bc d0 d9 88 3c 92 ff 3a 3e
       -0.05329089 -0.015424985 0.016705424 0.18261555
0003a0 28 18 22 3d d2 60 4a 3e 3f d4 0f 3e 10 60 e8 bd
       0.03957382 0.19763497 0.14045809 -0.113464475
0003b0 b1 37 db 3d 9a 48 1a be cb 35 90 bd 43 49 34 3d
       0.10703982 -0.15066758 -0.0704151 0.04401518
0003c0 a8 6f 9c 3d df 51 26 3e 58 b6 68 bd 56 db 14 3c
       0.07638484 0.16242169 -0.05681452 0.009085497
0003d0 fa 5b e8 3d 07 82 40 be 7f fd 1f 3e 03 79 24 be
       0.11345668 -0.18799601 0.15624045 -0.16061787
0003e0 cb 88 31 3c 91 26 dc bc 79 ca cb bd 63 51 11 3d
       0.010835837 -0.026873859 -0.09950728 0.035478007
0003f0 53 a9 34 3e a3 d4 4f bd cb fc e5 bd 90 74 89 bd
       0.17642717 -0.050739896 -0.11229857 -0.06711686

fc1.bias f4 [512]
000000 87 a1 ac 3c 7d 31 c2 3c 1c 82 9d bb ee 22 31 be
       0.021073116 0.023705238 -0.00480677 -0.17298481
000010 40 f1 0f bd d0 d4 46 3d 29 1d c1 bd 14 8d 4e 3e
       -0.035142183 0.048542798 -0.0942939 0.20171005
000020 bd aa e3 bc da d5 f7 bc 73 8e d1 bd 6a 42 cf 3d
       -0.027791375 -0.03025334 -0.10232248 0.10120089
000030 b1 8a 56 3e 48 44 37 3e 65 e7 41 be 19 4d 57 bc
       0.20951344 0.17897141 -0.18935926 -0.01314094
000040 b7 2d 32 bd 6f 18 5c bd 5a bc 2b be 9e c3 4c 3e
       -0.04350063 -0.05373424 -0.16771069 0.19996497
000050 15 2f 1c 3e 00 0b 18 be bf c4 0e 3e 05 cb 72 bd
       0.15252335 -0.14847946 0.1394224 -0.059275646
000060 e0 4f 63 3e 18 0d b1 3c 8c 7a d6 3d 6e cc 9d bc
       0.22198439 0.021612689 0.10472593 -0.019262519
000070 5a 60 7f bd 7b f1 29 be 99 78 21 be c2 b4 38 3e
       -0.062347747 -0.16596024 -0.1576866 0.18037704
000080 3e 1b 4b 3e a9 ed 42 3e be 0f 27 3e 72 9e 2e be
       0.19834611 0.19035973 0.16314599 -0.1705263
000090 e0 db f5 bd dc 50 47 3d 79 a1 1e be 0b 1c 31 bc
       -0.120048285 0.048661098 -0.15491284 -0.010809909
0000a0 8d 2a 83 3d 9b a7 6b bd 58 fa 6a 3d 6a 25 da 3c
       0.064046 -0.057532888 0.057367653 0.026629169
0000b0 1d 84 b0 bd b6 96 3c 3d 6e 39 30 3d 31 50 2b be
       -0.086189486 0.046042167 0.04302352 -0.1672981
0000c0 c3 fa 41 3e a0 df 48 3e 65 38 2f be 50 ff 73 bd
       0.18943314 0.19616556 -0.17111357 -0.059569657
0000d0 dd dc 20 bc c4 e5 1f 3c 0d 7e ac bd 52 c0 88 3c
       -0.009818283 0.00975937 -0.0842248 0.016693268
0000e0 4f 15 75 3d a6 78 8b 3d 56 5d e7 3d bc 9c 1e 3d
       0.059834775 0.06810121 0.11297099 0.038723692
0000f0 60 0a 90 3d ab 68 01 bd d8 a2 4c bd 9b 16 af 3d
       0.07033229 -0.03159396 -0.049959987 0.085492335
000100 13 64 2c 3e 40 1a 18 ba 8b 6a 24 be 8f fa 59 3d
       0.1683505 -0.00058022514 -0.16056268 0.053217467
000110 7c 80 19 be 93 89 8a 3d 9e cc 5d 3e b4 6e 00 be
       -0.14990419 0.067645214 0.21660087 -0.1254223
000120 b0 a3 13 bc 24 73 6f 3e 58 82 b6 3d d5 55 49 3e
       -0.009011194 0.23383766 0.0891158 0.19661649
000130 c8 08 bf bd 6b 13 d7 bc c2 53 16 be 21 72 b1 bd
       -0.09327847 -0.026254376 -0.14680389 -0.086643465
000140 be 08 7f 3d d7 35 28 3e f4 b3 3a 3e f3 cb b0 bd
       0.062264197 0.16426788 0.18232709 -0.0863265
000150 a9 5c 39 3e 99 8e fc bd 41 54 4d be fe be ef 3c
       0.18101753 -0.12331886 -0.20051672 0.029265877
000160 c7 6a 59 3e 9f 5c 2c 3e a3 fb 01 be 96 55 e0 bc
       0.21232139 0.16832207 -0.12693648 -0.02738456
000170 7c c0 46 3e 12 b0 d3 3d bf 63 01 3b 5f b5 b0 bd
       0.19409364 0.10336317 0.0019743291 -0.08628344
000180 78 00 ef 3d 5c 15 32 3e ab 59 0a 3e 49 ff 8e 3d
       0.11670011 0.1739096 0.13510768 0.069822855
000190 4f 2e bd bd f0 f7 32 be 8f 5e 34 3e fd 8f 69 3d
       -0.09237348 -0.17477393 0.17614196 0.057022084
0001a0 1f 64 f5 3c fe b9 9c 3d ac 8a a2 bd e7 0d 1e be
       0.029954968 0.07652663 -0.07936606 -0.15434991
0001b0 b7 c9 13 3e ab ab eb 3b 00 41 34 be 8a 68 ef bc
       0.14432417 0.0071920953 -0.1760292 -0.029224653
0001c0 3f 6f 20 bd fe 74 1a be 33 3f 29 be 3f 5e 4c bd
       -0.039168593 -0.15083691 -0.16528015 -0.049894568
0001d0 58 34 35 be 1b 4a f4 3d 39 5a 4f be b0 df a9 bd
       -0.17695749 0.11928197 -0.20249261 -0.08294618
0001e0 dc c1 1f be b4 f2 17 bd d1 c1 4a be 22 72 72 bd
       -0.15601295 -0.037096694 -0.19800498 -0.059190877
0001f0 26 b3 01 be 31 5e 06 3e 2c 9f 28 be c1 08 46 3e
       -0.12665996 0.13121869 -0.16466969 0.19339277
000200 f8 ad 44 3e b2 b8 95 3d 53 18 b8 bc ed ad f7 bd
       0.19206989 0.073106185 -0.022472536 -0.120937206
000210 63 ea b5 bd fd 40 01 be 74 d9 cf 3c 4d 4a 40 3e
       -0.08882596 -0.12622447 0.025372244 0.18778343
000220 d6 5a 86 bd bd d7 a0 bd 4d cd 21 3d c8 09 4c be
       -0.06560294 -0.07853649 0.03950243 -0.19925606
000230 a1 53 86 bd 05 d2 fb bd 5e 90 1b be 96 af 91 bd
       -0.0655892 -0.122959174 -0.1519179 -0.071135685
000240 f8 4e 22 3e f1 09 ba 3d e2 52 77 3d 0c a8 2a 3e
       0.15850437 0.090839274 0.060381778 0.16665667
000250 7a 89 01 3e 7d f7 a2 bb ea 11 96 3d a0 c6 82 bc
       0.126501 -0.0049733506 0.073276356 -0.015963852
000260 a7 10 d0 3d 61 96 4f 3d 4e 44 b5 3d 81 f7 51 be
       0.10159426 0.050680522 0.08850919 -0.20504571
000270 58 f3 10 bd eb b7 f6 3d d3 0e a2 3d 29 4e 59 3d
       -0.03538832 0.12046798 0.07912984 0.053053055
000280 e0 8b a2 bd 26 dc fc 3d dd 05 4c bd e2 c5 df bd
       -0.07936835 0.123466775 -0.04981028 -0.10926415
000290 8d 62 1b be 3e 03 b9 bb 22 0b 24 be e1 8d 0e 3e
       -0.15174313 -0.0056461385 -0.16019872 0.1392131
0002a0 12 27 e5 3c 82 be 35 bd b0 6d 2c 3e ec cc 87 3c
       0.027972732 -0.044371136 0.16838717 0.016577207
0002b0 71 b8 2d 3d 85 63 22 3e a6 76 06 3d 44 84 aa b9
       0.042412225 0.15858276 0.032827996 -0.00032523472
0002c0 26 f9 57 3e cd 20 0d be 3d 63 dd 3d d0 70 83 3d
       0.21091136 -0.13782044 0.10809944 0.06418002
0002d0 5b b7 42 bd ed f5 99 3d 08 03 21 3d fc 34 08 be
       -0.047538143 0.0751761 0.03930953 -0.13301462
0002e0 b7 15 0f be 33 3c b7 bd db e4 3d 3e 2d 1c 18 3e
       -0.13973127 -0.08947029 0.18544333 0.14854498
0002f0 86 96 0e bd 0d 02 d3 3d 9f 44 df 3d 14 ee 3a 3e
       -0.03481152 0.103031255 0.1090176 0.18254882
000300 0a f1 86 3d 92 33 3a 3e 5d 9a 55 bd f4 0c 1c 3d
       0.06588943 0.18183735 -0.052149165 0.03809829
000310 3a d3 05 be d8 c0 24 be e0 fe 65 bd c3 d5 26 be
       -0.13068858 -0.16089189 -0.05615127 -0.16292481
000320 c9 89 83 3d 20 03 07 3e 35 eb 0f 3d cf 1b 3d be
       0.06422765 0.13184786 0.03513642 -0.1846764
000330 a6 8e b1 3d 38 c9 36 3e d4 2b e3 3c dc 65 43 be
       0.08669786 0.17850196 0.02773086 -0.19081825
000340 51 e7 57 bd e7 e4 4a 3e 3c 15 e2 bd 98 dc 13 be
       -0.052710835 0.19813882 -0.110392064 -0.14439619
000350 d4 ed 15 3e 1a f3 26 3e 1b 68 6d 3c 16 86 44 3e
       0.14641505 0.16303673 0.014490153 0.19191775
000360 3c 46 35 be 89 b8 00 3e e5 7e 3a be 94 d0 85 bd
       -0.17702574 0.12570395 -0.18212469 -0.06533924
000370 5a bf 2b 3e 8a e8 c5 bd 56 30 1c be 87 05 f3 3c
       0.16772214 -0.09663494 -0.15252814 0.029665722
000380 cb 1a 43 3e 49 6e 80 bd 8b 88 43 be e2 29 ed 3d
       0.1905319 -0.06271035 -0.19095056 0.11580254
000390 56 77 22 3e 1a 4d e8 bd c2 7a e7 bd e1 eb bb 3d
       0.15865836 -0.11342831 -0.11302711 0.0917585
0003a0 36 76 77 3d 4f df 28 be 55 ca 39 bd 85 58 88 3d
       0.06041547 -0.16491435 -0.045358974 0.06657509
0003b0 b9 5a c0 3c 7f aa 1f 3e 8f d7 00 3e 4b 2e 10 3d
       0.02348076 0.15592383 0.12582229 0.0352004
0003c0 b1 d5 18 3e ed 3c 42 be 8e e9 e1 3c 83 f5 ca bb
       0.14925267 -0.18968554 0.027577188 -0.006193818
0003d0 89 ba ef bd 7e 14 25 3c 3d f1 6e bd 39 56 4b be
       -0.11705501 0.0100756865 -0.05833553 -0.1985711
0003e0 ee 9c 01 3d 90 4a 61 3e 15 43 0a be b0 4a 21 bd
       0.0316438 0.220011 -0.13502152 -0.03937787
0003f0 03 73 5f bd 5f ef b7 bd 2f 43 cb 3d a0 2a 43 be
       -0.054553043 -0.08981203 0.09924924 -0.19059229

fc_mu.weight f4 [2, 512]
000000 0c ed 88 ba 6e 55 f4 bc 3f bb 48 3d 47 e6 f7 bc
       -0.0010446622 -0.029825892 0.049006697 -0.030261172
000010 1d b3 87 3d 10 24 18 3c 49 11 0a bd 87 1d b1 bc
       0.0662596 0.009285942 -0.03370789 -0.021620525
000020 b5 b9 37 bc 03 1b 65 3d 1e c9 49 3d d3 c3 c6 3c
       -0.01121371 0.055933964 0.049264066 0.024263298
000030 da dc 46 3d c1 23 0c 3d 1c f7 ae 3c 25 b0 43 3d
       0.048550464 0.034213785 0.021358065 0.047775406
000040 98 41 0a 3d 64 c9 64 3c 0b 37 c1 3c b4 42 d3 3b
       0.03375396 0.013964031 0.023585817 0.0064471606
000050 05 97 29 bc 91 0f f9 3c df 17 09 3d ff b2 13 3d
       -0.010350947 0.03040293 0.03347003 0.036059376
000060 1b 92 6a 3d 86 03 6a 3d ff 33 70 3c 00 d7 c8 bb
       0.057268243 0.057132266 0.014660834 -0.0061291456
000070 82 67 b8 3c 39 da 4b 3d 6a c7 f0 bc 27 70 b1 bc
       0.022510294 0.04976866 -0.029391963 -0.021659924
000080 58 2a 95 bc 2b bf 94 bc e8 dd 58 3d 37 a7 08 3d
       -0.018208668 -0.018157562 0.052946 0.033362594
000090 d6 9b c3 3b 84 81 be bc 01 af 10 3d c3 b1 85 3c
       0.005969505 -0.023255117 0.035323147 0.016320115
0000a0 17 97 e4 3b 4e b2 0b bc 5a 17 7b 3d 98 c1 81 3c
       0.006976019 -0.008526398 0.061301567 0.015839383
0000b0 fd 89 c3 bc 53 d6 38 3d f0 bf fc bb 0b 64 a7 bc
       -0.023869509 0.04512627 -0.0077133104 -0.020433446
0000c0 25 b8 d4 bc 90 fd e2 38 45 ed ba bc 7c e4 d0 bc
       -0.025966713 0.000108237495 -0.022818217 -0.025499575
0000d0 9d 7e e3 3c 83 15 32 3c 82 35 c5 bc 9d 97 3b 3b
       0.027770335 0.010869387 -0.024073366 0.0028624304
0000e0 2c b8 0e bd 96 db 3b 3d 27 54 06 bd 42 47 d1 bc
       -0.03484361 0.04586371 -0.032795098 -0.025546674
0000f0 f6 65 9b 3b d2 ac 0b bd 9d d1 e9 bc 1f 5e 09 bd
       0.0047423793 -0.03410036 -0.028542334 -0.033537026
000100 03 74 8d bc c8 55 59 3c 28 59 0a 3d d9 11 db bc
       -0.017267233 0.013265081 0.033776432 -0.026741909
000110 8b d1 14 3d b3 96 47 bc f6 4d 30 3d 4b 06 c0 3a
       0.03633265 -0.012181926 0.0430431 0.0014650313
000120 14 16 0a 3d bc 18 3a 3d 27 6c c4 bb 60 87 57 3c
       0.03371246 0.045433745 -0.005994338 0.0131548345
000130 47 ab d5 3c d7 9d 15 3d 4f e6 9b 3b ea 6a 12 3d
       0.026082648 0.03652748 0.0047576795 0.035746492
000140 01 1d 0c 3d 07 55 32 3d cf 7a d9 bc cf 65 3b bc
       0.034207348 0.04353812 -0.026547818 -0.011437847
000150 c4 28 d0 3b 50 79 1c 3d a6 39 2f bd fa 47 c5 3c
       0.006352516 0.03820163 -0.042779587 0.024082173
000160 84 eb 6d 3d 2f ae 21 3d 39 e9 50 3d ac be 24 3b
       0.058085933 0.039472755 0.05100367 0.0025138063
000170 ca 0f 63 3c 6e 47 38 3d 69 53 9a bc d7 73 4d ba
       0.013858745 0.044989996 -0.018838601 -0.0007837391
000180 c8 b3 4f bc b6 3a 21 3d e7 f0 8f 3c 07 20 19 bd
       -0.0126771405 0.03936263 0.017570926 -0.03738406
000190 02 56 1e 3d 26 b2 4e 3d c2 ec dc 3b 7c 4c 25 3d
       0.038656242 0.050462864 0.006742091 0.040356144
0001a0 aa 3d ff bc e1 79 69 3b 0a ee 43 3b 89 e4 a2 3c
       -0.031157333 0.0035625624 0.002989652 0.019884365
0001b0 41 b9 3c 3d 1c 60 1e 3d 7b dc 5a 3d 9e 09 36 bc
       0.04607511 0.038665876 0.053432923 -0.011110691
0001c0 b4 7f 7c 3c 23 71 80 3c e1 ff 06 bd 83 a9 b6 bb
       0.015411306 0.015678948 -0.03295887 -0.0055744066
0001d0 a6 64 0b bd e8 2f 70 ba 9f ec a6 bc 1b e8 37 3d
       -0.034031533 -0.0009162412 -0.020376502 0.044899087
0001e0 f2 81 69 bc a4 32 26 3d fb 8d 23 bc fd 8f 1b 3d
       -0.014252173 0.04057564 -0.009982581 0.037979115
0001f0 ff 5c 13 3c 5c c4 b0 bc d6 67 fd ba c0 b3 9a bc
       0.00899434 -0.021578006 -0.0019333314 -0.01888454
000200 e7 97 b4 3c f4 05 67 3d 99 a4 ae 3c d0 2b 3a 3c
       0.022045089 0.05640216 0.02131872 0.011362985
000210 04 71 d8 bc 93 5b 9b 3c 49 8c e6 3c dd 40 6e 3b
       -0.026421078 0.018964564 0.028143065 0.003635458
000220 87 15 08 bd fc 79 9b bc 51 66 15 bd 61 79 6e 3c
       -0.033223655 -0.018979065 -0.03647453 0.014555306
000230 ad 3c 98 3c 06 9c 12 3d b7 5a 0d 3d 31 dc dc bc
       0.01858362 0.035793327 0.03451034 -0.026960464
000240 32 f6 5d 3c 28 2e 47 3d f5 f4 23 bc e0 20 2f bd
       0.013547467 0.048628002 -0.010007133 -0.04275596
000250 be 3d 0f bc 17 08 09 bc 84 d5 4a 3d b9 01 f9 3c
       -0.008742748 -0.008363745 0.04952003 0.03039633
000260 d7 22 4e 3d cf 8b 20 3d f0 fe 5c 3c 94 8a 92 bc
       0.050326195 0.039195832 0.013488516 -0.017888345
000270 d7 44 63 3c cb 36 92 bb ee ce fe bb 6b e7 0b bd
       0.013871393 -0.0044620982 -0.007776133 -0.034156244
000280 4c 37 3c 3d 42 29 fc bc da e3 9e bb eb 3d 98 3c
       0.045951173 -0.030781392 -0.0048489394 0.018584212
000290 fd 79 be bc 59 0f da bb b9 a3 f6 bc 58 0c a3 3c
       -0.023251528 -0.0066546616 -0.030107366 0.019903347
0002a0 9a c3 33 3d f9 67 e3 3c b3 50 28 3b 4b 2b 29 3d
       0.043887712 0.027759539 0.0025682866 0.041301053
0002b0 b5 78 36 3d 6a 96 50 3d a0 dc 20 bc 61 80 fc 3c
       0.04454871 0.050924696 -0.009818226 0.030822935
0002c0 84 7f bd 3c 3a 16 bc 3c cd e4 28 3d 2c 3b e5 bb
       0.023132093 0.022959817 0.041233826 -0.006995579
0002d0 5f 5b c3 bc be fe c3 3c 61 f7 10 3d 64 b0 ad bc
       -0.02384728 0.023925181 0.03539217 -0.021202274
0002e0 01 7c 0c 3d 77 f8 96 3b 95 af 4b 3d 1a 74 e3 bc
       0.034297947 0.004607256 0.049727995 -0.027765322
0002f0 b9 e0 43 bc 33 fe a5 3c f2 d1 c2 bc 88 16 ef 3b
       -0.0119554335 0.020262813 -0.02378175 0.007296387
000300 df e8 54 36 08 78 28 3d dc 1e 21 bd 30 77 0f bd
       3.172601e-06 0.041130096 -0.03933607 -0.035025775
000310 be 8e 15 bd 96 f9 aa 3c c2 65 a0 3b 93 a2 21 bc
       -0.036513083 0.020870965 0.004894943 -0.009865421
000320 c4 44 cc bc 46 79 f4 3c c1 58 bd bc 85 aa 40 bc
       -0.024935134 0.029842984 -0.02311361 -0.011759405
000330 c4 80 d1 bb b2 df 15 bd 04 30 40 bc 37 e6 e5 3b
       -0.006393524 -0.036590286 -0.011730198 0.007015969
000340 50 d6 ea 3c 1b 2b 43 3a 8a d1 4c 3d ef 2e c4 3b
       0.028666645 0.0007445083 0.05000452 0.0059870402
000350 10 6b f1 3c 24 33 a3 bc 74 55 5e 3b 39 a4 39 3d
       0.029469997 -0.019921847 0.0033925446 0.04532263
000360 cd 2a 1b 3d e9 55 90 bb 34 7b 18 bc 22 e2 04 bc
       0.037882615 -0.0044047725 -0.009306718 -0.008110555
000370 ba 4b df bc 78 60 f3 3c 46 1f 29 3d 13 e3 5f 3a
       -0.027257789 0.029709086 0.04128959 0.00085406116
000380 c2 b0 a3 bc 2f 7f 5a 3d 39 c5 7b bc 23 07 0f bc
       -0.019981746 0.053343948 -0.015366846 -0.008729729
000390 6d 59 b5 bc 44 d1 4c 3d c7 e6 71 3c fd 99 36 bd
       -0.022137368 0.05000426 0.014764494 -0.04458045
0003a0 46 3b 52 3d ff ed f9 3c 96 ad bc 3c 02 83 82 3d
       0.05132606 0.030508993 0.023031991 0.06372644
0003b0 2e cb 82 3c 4e f6 38 bc 29 ee 23 bb 52 1f 08 3d
       0.015966024 -0.011289192 -0.002501378 0.033232994
0003c0 d9 60 82 bc 13 44 2a 3d 43 f5 b8 bc 30 44 36 3d
       -0.015915321 0.041568827 -0.022577887 0.044498622
0003d0 20 4b 75 3b 13 d7 8d 3d 8a 65 8d bc e7 e5 ac 3c
       0.0037428811 0.06925788 -0.017260332 0.02110572
0003e0 cc 7a 28 3d 9e d3 d0 3c 9d 75 ec 3b f0 1a 9d bc
       0.041132733 0.025491532 0.007216169 -0.019177884
0003f0 0e 40 36 bc aa 92 f6 3c cd 5a 40 3d fe f2 02 bd
       -0.01112367 0.030099232 0.046961594 -0.031970017

fc_mu.bias f4 [2]
000000 f1 07 67 3c b5 31 e1 3c
       0.0141010145 0.027489522

fc_std.weight f4 [2, 512]
000000 ec 2c f5 3c 7d 96 0a 3d 05 b8 91 bc 74 e0 eb bb
       0.029928647 0.033834923 -0.017787943 -0.0071983878
000010 de 42 b9 3c de 7a 7e ba e0 4f 08 bc 48 2f 2b 3d
       0.022614893 -0.00097076397 -0.008319825 0.041793138
000020 c4 57 96 bc 8c e8 3d bc f1 67 29 3c c4 d9 93 bc
       -0.018352397 -0.011591088 0.010339723 -0.018048175
000030 62 f4 5a bc 0d 24 01 bd 69 25 09 3d c2 01 60 bc
       -0.013363929 -0.03152852 0.033482943 -0.013672294
000040 e1 bc 40 3a b4 08 18 3d 23 08 11 bd 62 bc 42 3b
       0.0007352364 0.037117675 -0.03540815 0.0029714336
000050 7f 38 7b bc 2d 55 05 bd 3c f8 0a 3c a5 d6 b2 3c
       -0.015333294 -0.032551933 0.008482035 0.021830866
000060 99 03 0c 3d 21 04 5a 3d 70 6f cb 3c e6 ee b2 3b
       0.03418312 0.053226594 0.024833411 0.005460608
000070 e8 cd 9b bc d5 06 b3 bc d6 b7 23 bd 08 0c 1a bd
       -0.019019082 -0.021853844 -0.03997024 -0.03760913
000080 5c db da bc 5d 0d 0c 3d 7a 04 c4 3c 48 73 2f 3d
       -0.026715927 0.03419243 0.023927916 0.04283455
000090 75 12 06 3d f3 bc 12 3d dd 71 a7 3c c6 81 96 3c
       0.032732446 0.035824727 0.020440036 0.018372428
0000a0 15 c0 a5 3c 35 8b 04 bd d9 d2 01 bd c8 56 1b 3d
       0.020233193 -0.03235932 -0.03169522 0.037924558
0000b0 7c af 05 3d 32 14 ec bb 5c 9c ce bc ec 00 f5 bc
       0.032638058 -0.007204556 -0.025221042 -0.029907666
0000c0 8f dd c1 bc 2c 24 08 bc ad cb b3 3b 40 57 98 3b
       -0.023665218 -0.008309405 0.0054869265 0.004649073
0000d0 30 24 a7 3c 05 21 4d 3c a0 72 7c 3c 97 59 18 3d
       0.020402998 0.0125200795 0.015408188 0.037194815
0000e0 ab 78 63 3c c5 4b ef 3a 44 59 d8 3c 68 c5 7a 3c
       0.01388375 0.0018256834 0.026409753 0.015305854
0000f0 5c 58 a9 3c 21 ef eb bb db a9 26 bd 73 01 49 bc
       0.020672016 -0.0072001372 -0.04068933 -0.012268412
000100 8a 1c 2b 3d 70 be 44 bc 2d a3 a4 bc 37 99 4e bc
       0.041775264 -0.012008294 -0.02009734 -0.012609771
000110 0a 02 1b 3d 20 13 36 3d 3e 12 17 bd c9 85 35 bc
       0.03784374 0.044451833 -0.03688263 -0.01107926
000120 b6 47 23 3d 8e 0a 90 3c 62 84 10 3d bf bb ee bc
       0.03986331 0.017583158 0.0352825 -0.029142259
000130 66 0a 07 3d c0 86 97 bc 96 23 c0 bc 2e 4c 1d bc
       0.0329689 -0.018496871 -0.023454469 -0.009600682
000140 45 01 a7 bc 4f e1 a8 3c df 62 11 3d 93 15 d3 bc
       -0.020386348 0.020615248 0.03549468 -0.025767123
000150 46 1c a5 3c dc 03 da bc c9 d5 ce 3c ee 2c f0 39
       0.020155083 -0.026613168 0.025248425 0.00045809842
000160 9a 35 0b 3c fa 32 e2 bc 79 bf a7 3c 35 7b d1 3c
       0.008496666 -0.027612198 0.020477043 0.025571445
000170 85 5e 38 bc 32 5d 5c bc 1c cb 25 3d a6 a3 20 3d
       -0.011253004 -0.013449954 0.040476903 0.039218567
000180 70 1b 82 bc 2b 76 a3 3c 25 7b 84 bc 00 3e 19 bd
       -0.015882224 0.019953808 -0.016172001 -0.037412643
000190 f0 e7 54 bb ed f7 0d bd e2 73 90 bc f5 5a 50 bb
       -0.0032486878 -0.03466027 -0.017633382 -0.0031792496
0001a0 bb 91 bd bc c0 88 d2 3c ee db 49 bc 5e df f5 bc
       -0.023140779 0.025699973 -0.012320502 -0.030013736
0001b0 7e 4c 8a 3c 5c cf 93 3c 35 32 fa bb 96 c6 df bc
       0.016882177 0.018043213 -0.0076353797 -0.027316373
0001c0 f6 6d b8 3c 02 fa 54 bc fc 4f 6a bc 14 30 28 3d
       0.022513371 -0.01299906 -0.014301296 0.041061476
0001d0 82 a9 a6 bc e2 8c 1f 3d ac 10 73 3b c4 e1 87 bb
       -0.0203445 0.038952716 0.0037088795 -0.0041467864
0001e0 f6 e7 ba bc 4a d4 54 3d 8b 71 f0 3b 44 57 5b 3c
       -0.022815686 0.051960267 0.007337754 0.013387505
0001f0 c4 8f f7 bc de 61 14 3d 8e 92 23 3c 19 50 bc 3c
       -0.03021992 0.036226146 0.009983672 0.022987412
000200 48 c8 07 3d 0c 06 2e 3c 43 84 ed 3c e0 5e a8 bc
       0.033149987 0.010621559 0.028993731 -0.020553052
000210 ce 69 2d 3d 33 4d e3 3c c0 0b dd 3c 18 80 6b bc
       0.04233723 0.027746772 0.026983142 -0.014373802
000220 43 47 a7 3c 84 61 2f 3d 66 47 8d bc eb 36 87 bb
       0.020419722 0.042817608 -0.01724596 -0.00412642
000230 d3 66 a5 b9 8e 49 da 3c fb 20 cb 3a 56 0d 2c 3c
       -0.00031547862 0.026646402 0.00154975 0.010501226
000240 96 16 8a bc b5 00 46 3c 64 dd 0e 3d 24 d0 6f 3c
       -0.016856473 0.0120851295 0.034879103 0.014637027
000250 98 4c 4e 3d 26 d2 09 3d 04 c2 b7 bc ad f2 e4 bc
       0.050366014 0.03364768 -0.022431381 -0.027947748
000260 98 51 f9 bc fe 7f 4d bb 52 b3 db 3c b5 13 7e bc
       -0.030434415 -0.0031356807 0.026818905 -0.015507628
000270 7f 05 d2 bb 66 75 8c bc 64 f6 95 3c b2 00 78 3c
       -0.0064093466 -0.017145824 0.018305965 0.0151368845
000280 b6 6f 00 bd 61 9a 97 bc ba 97 a6 ba f9 ac 3d 3d
       -0.031356536 -0.01850623 -0.0012710013 0.046307538
000290 09 c6 18 bd 4b 52 10 bd 5a 2b b6 3c 87 f3 93 3c
       -0.037298236 -0.03523473 0.022237469 0.018060459
0002a0 9d c1 37 3b d3 8d 0e bd d4 3e 6b bc 68 ac 0d 3d
       0.0028038986 -0.034803223 -0.014358241 0.034588248
0002b0 d0 17 36 3d b7 f8 15 3c 72 0f 4b 3d ea c1 04 3d
       0.044456303 0.0091535365 0.049575277 0.032411493
0002c0 71 1f 2e 3a 00 91 dd bc e0 21 92 bc c8 e0 34 bb
       0.00066422584 -0.02704668 -0.017838418 -0.00275998
0002d0 5b e4 00 bd 81 70 2b 3d e7 a6 a7 bb 37 58 16 bd
       -0.031467777 0.04185534 -0.005116332 -0.036705222
0002e0 2b 83 70 bc 68 6e 0e bc 3b 70 01 bd 87 e8 a8 bb
       -0.01467971 -0.008693315 -0.031601172 -0.0051546725
0002f0 34 2f bd bc 84 8c 39 bc 19 1d e4 bc dc 6e 32 bb
       -0.023093797 -0.011325005 -0.027845906 -0.0027226722
000300 96 89 cf bc bf 02 b1 3c ac ad 39 3c 8f 58 93 ba
       -0.02533416 0.021607755 0.0113329105 -0.0011241602
000310 11 9e f0 3c ea 3c f3 3c bc ae 4c ba 7e d3 bd 3b
       0.029372247 0.029692132 -0.000780802 0.005793034
000320 4f 8d bb 3c 5c 0a 1a bd e7 62 43 3c ee 1f 0f 3c
       0.02289453 -0.037607536 0.011925436 0.00873564
000330 96 52 8d ba 22 44 0f bc 2d 9a a6 bc f3 fc 95 3c
       -0.0010782059 -0.0087442715 -0.020337189 0.018309092
000340 1a b4 fa bc 37 29 8c 3c 3a 45 f1 bc 6d bd aa 3c
       -0.030603457 0.017109497 -0.029451955 0.020842278
000350 36 6d e1 3b df 71 9a bc 51 75 7f bc 9d 13 8c bc
       0.006879474 -0.018853126 -0.015591935 -0.017099196
000360 67 5b 80 bc 05 6e 46 bc 8d 94 c1 bb 33 c3 1b 3d
       -0.015668584 -0.012111192 -0.005907601 0.038027953
000370 11 69 a8 3b 26 21 3c 3d 35 75 0e bc af 64 03 bd
       0.005139478 0.04593005 -0.0086949365 -0.03207844
000380 a5 40 0f bc a9 88 d2 3c 41 f6 d2 bc ac a4 10 3d
       -0.00874344 0.02569993 -0.025752189 0.035313293
000390 e9 27 bc 3b 4c ac 1e 3d 9b 75 93 bb 4a 36 19 bd
       0.0057420623 0.038738534 -0.0045001036 -0.03740529
0003a0 98 71 b3 bc 88 46 3e 3b 4b 72 cc bc 3c e3 30 3d
       -0.021904752 0.002903374 -0.024956843 0.043185458
0003b0 8e 5c 2d 3d 81 65 13 bc bb 1f 30 3d 63 0f 97 3c
       0.042324595 -0.008996368 0.04299901 0.018439954
0003c0 a4 11 c9 ba 91 e6 20 bd 72 0a 08 bd 1f 24 eb bc
       -0.001534034 -0.039282385 -0.033213086 -0.028703747
0003d0 db 73 c9 3a b7 3c 2a 3d 11 d3 8e 3c 8e 59 74 bb
       0.0015369611 0.04156181 0.017434629 -0.0037284824
0003e0 b1 26 04 3d ce c8 d6 3c 98 fa 07 bd 67 08 62 3c
       0.03226346 0.026218798 -0.03319797 0.013795949
0003f0 98 f9 a3 3b c5 6c ab 3c 5b bc 05 3c 94 74 e6 bb
       0.005004119 0.020925889 0.008162583 -0.00703294

fc_std.bias f4 [2]
000000 5f 2b 81 3c eb 20 27 bd
       0.015767751 -0.040802877
